Models/gcn-time/gcn_time_best_model.pth.tar (torch, 196573 bytes, 24 tensors)

gc1.bias f4 [64]
-0.022191126 -0.04274055 0.083201826 -0.02252848 -0.09967196 0.041813236 0.04542822 -0.0007725586
0.017509669 -0.041829035 0.00016760817 -0.075146616 0.2066069 0.000712462 0.031858433 -0.03451528
0.061096124 -0.020040669 0.014898625 0.09270788 0.03696383 0.1141173 -0.00906263 -0.031672206
-0.014808099 0.01901214 0.09099134 -0.033703435 -0.00074934826 -0.0002620588 0.0019240209 -0.041362263
-0.005597704 0.003490114 -0.0118434075 0.0886804 0.10618442 0.015900718 -0.056389768 0.15230219
-0.03697692 0.110380106 -0.060920186 -0.07431377 0.015634267 0.004296784 0.08351619 -0.13061576
0.023146655 0.005100179 -0.045473892 -0.10768338 0.15717773 -0.05927098 0.09480193 0.086896755
0.13098648 0.006159141 0.021013584 -0.02735729 0.1460464 -0.016327942 -0.022930684 -0.014308881
00000000: 2aca b5bc b710 2fbd b865 aa3d a68d b8bc
00000010: d020 ccbd 5b44 2b3d f112 3a3d 8885 4aba
00000020: 7070 8f3c ec54 2bbd fabf 2f39 78e6 99bd
00000030: c290 533e 84c4 3a3a fd7d 023d e55f 0dbd
00000040: ee3f 7a3d 542c a4bc 5d19 743c a1dd bd3d
00000050: 6367 173d 55b6 e93d 6d7b 14bc b7ba 01bd
00000060: ab9d 72bc 59bf 9b3c ab59 ba3d 9d0c 0abd
00000070: e96f 44ba f064 89b9 6e2f fc3a 7a6b 29bd
00000080: f26c b7bb 65ba 643b da0a 42bc 129e b53d
00000090: 3877 d93d 3942 823c f5f8 66bd 1bf5 1b3e
000000a0: 1c75 17bd f70e e23d 7287 79bd d131 98bd
000000b0: 6f13 803c 09cc 8c3b 890a ab3d 23c0 05be
000000c0: 0e9e bd3c 671f a73b d542 3abd 1b89 dcbd
000000d0: 33f3 203e 21c6 72bd 8427 c23d edf6 b13d
000000e0: 5221 063e 9fd2 c93b ae24 ac3c 651c e0bc
000000f0: 308d 153e 2dc2 85bc 21d9 bbbc cc6f 6abc

gc1.lin.weight f4 [64, 128]
-0.051403366 0.035217118 -0.01690966 -0.10407678 -0.050945688 0.09627603 0.12079242 -0.0030623693
0.004287141 0.17160755 0.00048255283 0.17503065 0.050742026 0.028697452 -0.023755167 0.15999168
0.12874916 0.057878476 0.14690888 0.16942222 0.0051332098 0.015640035 -0.06531689 -0.12887686
0.03550173 -0.17796274 0.06532429 0.019527867 0.13604647 0.14715031 0.12980492 -0.119859695
0.06275513 0.14371352 -0.010495118 0.06874002 -0.040720504 0.045432728 -0.08650233 0.08435958
0.15660685 -0.02864675 0.09190945 0.072801284 -0.007306652 -0.12814099 -0.08008427 0.024725163
-0.16380167 -0.1673035 -0.026547493 -0.14423823 -0.10621761 0.13210931 -0.0538318 0.1525786
-0.045164015 0.16742666 0.013341058 0.12568657 -0.10126007 -0.12728998 -0.13333109 -0.091760226
-0.118092805 0.066691354 0.021858264 0.02651471 -0.02658735 -0.090169996 -0.16338949 -0.102323204
-0.00734548 0.02146227 -0.12806341 -0.09867216 0.11475572 -0.091556296 -0.025961032 -0.099416025
0.14316472 0.020366756 -0.13831045 0.079465754 -0.069142416 0.1615904 0.15720347 -0.14425477
0.16879569 0.11018751 -0.0379701 -0.16221015 0.08432515 -0.047096726 -0.09387093 -0.097478025
0.15393826 0.09767172 0.02443208 -0.10067533 0.17498563 0.00033018776 0.0006171594 0.088586934
0.015476355 0.11128559 -0.15193175 0.037035033 0.16112103 -0.009302274 0.09345539 -0.004247464
-0.17065555 -0.16685423 -0.09807457 -0.090893805 0.09459946 -0.0983055 -0.1559944 -0.07760841
0.116147675 -0.1120908 0.028825106 -0.007752901 0.06296078 -0.13939717 -0.14543462 -0.16669561
0.024938468 -0.045299537 -0.023824958 0.12503837 -0.0005231019 -0.07867175 0.068160236 0.14797887
-0.042391345 0.0018160726 -0.044872932 0.17191085 -0.009161185 0.15957358 -0.14731652 0.08856575
-0.14209872 0.060285952 0.035578564 -0.17496316 0.086876065 0.10773131 -0.03792606 -0.048701204
-0.025321094 -0.005430311 -0.16729032 0.0068029305 -0.029139897 0.06613529 0.1649846 0.14550127
0.004065679 0.13706356 0.14245422 0.13978468 -0.033306826 0.10907282 0.05675712 -0.040413965
0.078024946 0.086230494 0.108039364 0.16427721 -0.02450383 -0.17202076 0.16779006 -0.053154502
-0.1310525 -0.13762894 0.13841388 0.018442817 -0.10417886 0.06421608 -0.12875439 -0.1042476
-0.0045724846 -0.013637686 -0.026469423 -0.1250308 0.14326978 -0.025755905 -0.12174434 0.1530129
-0.005832652 -0.14867534 0.103665374 0.064691 0.122919664 0.063754246 0.14088796 0.11198013
-0.053943664 0.117353804 -0.16951677 0.041797176 0.12105799 0.13776775 0.0911704 0.10437102
0.16310331 -0.105659276 0.13977176 -0.06654103 -0.1463546 0.037065372 0.028549092 -0.017010687
0.042673018 0.13192734 0.06937779 -0.07417334 -0.16339067 -0.08184572 0.03213616 0.022833778
-0.058971092 0.15937373 0.08625049 0.056423616 -0.040754892 0.16299474 0.028257469 0.16518724
0.046581384 -0.033482343 -0.14424819 0.044111673 0.025887331 -0.15182096 0.066282466 0.09019641
0.13942042 -0.10215686 0.11122434 -0.15060008 0.0054025627 0.11975488 -0.08065078 0.039427105
0.029954508 -0.10746941 -0.062371105 0.08979139 0.01467356 0.15422767 0.056187052 -0.16507697
00000000: 568c 52bd d33f 103d 2186 8abc 3526 d5bd
00000010: 6dac 50bd 5e2c c53d 0462 f73d 08b2 48bb
00000020: 257b 8c3b e4b9 2f3e 25ff fc39 3c3b 333e
00000030: dfd6 4f3d eb16 eb3c 329a c2bc dcd4 233e
00000040: d2d6 033e fb11 6d3d 486f 163e 057d 2d3e
00000050: 7c34 a83b 881f 803c ddc4 85bd 4cf8 03be
00000060: 436a 113d dd3b 36be bec8 853d e8f8 9f3c
00000070: c44f 0b3e 92ae 163e 95eb 043e 0079 f5bd
00000080: c385 803d a329 133e b7f3 2bbc 91c7 8c3d
00000090: 8bca 26bd ab17 3a3d 2228 b1bd b7c4 ac3d
000000a0: 8c5d 203e 97ac eabc 063b bc3d d718 953d
000000b0: a46c efbb 6437 03be 3903 a4bd 6d8c ca3c
000000c0: a0bb 27be 9c51 2bbe 217a d9bc 30b3 13be
000000d0: 9e88 d9bd aa47 073e bc7e 5cbd 913d 1c3e
000000e0: e7fd 38bd e571 2b3e 7494 5a3c fbb3 003e
000000f0: 7161 cfbd 4e58 02be f287 08be c9ec bbbd
00000100: a4da f1bd 7a95 883d 1a10 b33c 6135 d93c
00000110: b7cd d9bc 0cab b8bd 934f 27be d48e d1bd
00000120: 5ab2 f0bb a4d1 af3c 0e23 03be a114 cabd
00000130: 0c05 eb3d de81 bbbd 3bac d4bc a19a cbbd
00000140: c699 123e 2fd8 a63c 41a1 0dbe f1be a23d
00000150: 8a9a 8dbd f477 253e f2f9 203e 86b7 13be
00000160: c7d8 2c3e fda9 e13d 8986 1bbd 6b1a 26be
00000170: aab2 ac3d 7fe8 40bd 673f c0bd 8fa2 c7bd
00000180: fea1 1d3e 1c08 c83d c925 c83c de2e cebd
00000190: 6f2f 333e 0d1d ad39 dec8 213a 116d b53d
000001a0: 8a90 7d3c b3e9 e33d ff93 1bbe 0cb2 173d
000001b0: e9fc 243e 9168 18bc 8a65 bf3d 4f2e 8bbb
000001c0: 54c0 2ebe d6db 2abe 52db c8bd 8826 babd
000001d0: 5dbd c13d 6554 c9bd ffbc 1fbe 28f1 9ebd
000001e0: d5de ed3d dd8f e5bd a122 ec3c 0c0c febb
000001f0: 95f1 803d 22be 0ebe d0ec 14be 41b2 2abe
00000200: c24b cc3c 028c 39bd 8f2c c3bc 0f0a 003e
00000210: c620 09ba a81e a1bd 9897 8b3d c687 173e
00000220: 8ca2 2dbd 4909 ee3a aecc 37bd 6609 303e
00000230: cb18 16bc 4267 233e 24da 16be f661 b53d
00000240: 5482 11be 67ee 763d d4ba 113d 8b29 33be
00000250: 14ec b13d 3ca2 dc3d 5b58 1bbd ea7a 47bd
00000260: 2f6e cfbc c0f0 b1bb 274e 2bbe 1eeb de3b
00000270: cbb6 eebc f071 873d b9f1 283e 49fe 143e
00000280: 6339 853b 645a 0c3e 85df 113e b723 0f3e
00000290: bd6c 08bd 9261 df3d 277a 683d 1d89 25bd
000002a0: 8bcb 9f3d 9d99 b03d be43 dd3d 4938 283e
000002b0: 42bc c8bc 3626 30be 28d1 2b3e 89b8 59bd
000002c0: a032 06be 9aee 0cbe 5ebc 0d3e 6415 973c
000002d0: ba5b d5bd b883 833d 31d8 03be c47f d5bd
000002e0: c8d4 95bb 9a70 5fbc 67d6 d8bc 1308 00be
000002f0: 50b5 123e 0cfe d2bc 1955 f9bd 6aaf 1c3e
00000300: d51f bfbb 593e 18be 834e d43d b77c 843d
00000310: 4ebd fb3d 9691 823d ef44 103e d755 e53d
00000320: 08f4 5cbd 3157 f03d ce95 2dbe 8433 2b3d
00000330: 40ed f73d fd12 0d3e 8cb7 ba3d 79c0 d53d
00000340: 8e04 273e e463 d8bd 5420 0f3e aa46 88bd
00000350: fbdd 15be dcd1 173d c9df e93c ff59 8bbc
00000360: e7c9 2e3d f617 073e f115 8e3d 31e8 97bd
00000370: e24f 27be bb9e a7bd 35a1 033d e70d bb3c
00000380: ac8b 71bd de32 233e 19a4 b03d 731c 673d
00000390: 9aee 26bd 18e8 263e 357c e73c d826 293e
000003a0: 1fcc 3e3d c824 09bd ccb5 13be 71ae 343d
000003b0: ab11 d43c f476 1bbe 1abf 873d e5b8 b83d
000003c0: 3ac4 0e3e 9e37 d1bd 96c9 e33d e836 1abe
000003d0: fb07 b13b 0c42 f53d 3c2c a5bd 517e 213d
000003e0: 2863 f53c ec18 dcbd d878 7fbd 8ce4 b73d
000003f0: 5f69 703c dced 1d3e 6524 663d f009 29be

gc2.bias f4 [32]
-0.06529273 0.051985048 0.054278675 -0.24405728 0.23219831 -0.14540271 -0.012763393 -0.1409624
-0.13819446 -0.2273832 0.009918217 0.19316863 -0.22453214 0.308841 -0.10644221 -0.036691118
-0.27438775 -0.04992108 0.07980061 0.08700459 0.260567 0.15870771 0.516059 -0.2350125
-0.24184766 0.082267426 0.32065248 0.095533244 -0.17771192 -0.15088178 0.16011657 0.35593888
00000000: 32b8 85bd 46ee 543d 5153 5e3d 27ea 79be
00000010: 65c5 6d3e 73e4 14be 8d1d 51bc 7358 10be
00000020: d982 0dbe 24d7 68be 0480 223c ffcd 453e
00000030: c1eb 65be 6820 9e3e 60fe d9bd 6d49 16bd
00000040: 8d7c 8cbe 0c7a 4cbd 816e a33d 762f b23d
00000050: 0a69 853e 4684 223e 711c 043f 1ea7 70be
00000060: eaa6 77be d37b a83d 902c a43e efa6 c33d
00000070: 1dfa 35be c180 1abe 99f5 233e 9f3d b63e

gc2.lin.weight f4 [32, 64]
-0.064572655 0.15899092 0.09513416 -0.21355899 -0.10941642 -0.24125095 -0.003692228 -0.0804227
-0.20147169 0.24587631 -0.029434882 0.05059646 0.114119075 0.15141942 -0.030024217 -0.12860298
0.124721825 0.23068191 -0.006169395 0.17295699 -0.22467497 -0.09736632 0.02212269 -0.11929958
0.13319117 0.016745336 0.16405997 0.071268946 -0.08366251 -0.1509875 0.016063524 0.032024056
0.0500889 0.0044150655 0.104599334 -0.005121097 -0.20099537 0.06857028 -0.14377967 -0.06093158
0.064385265 -0.14704645 0.0018058083 0.21525423 -0.076512426 -0.098477766 -0.21739368 0.22969253
-0.039647702 0.122648984 -0.094647884 -0.053267583 -0.03169563 -0.23394543 0.098872505 0.08983566
0.10302919 -0.04434263 -0.009049667 -0.15267359 -0.017853688 0.02687262 0.12506746 -0.21402709
-0.049606048 -0.11691755 -0.22251712 -0.021121118 0.052539263 -0.15447947 -0.095982336 -0.21059364
-0.15305011 -0.15204875 0.20257752 0.23867989 0.019913087 -0.005462574 -0.027801372 -0.12296704
-0.15271604 0.04339327 -0.22848493 -0.020169817 -0.031785745 -0.14760642 -0.16334721 -0.12838532
0.25145206 -0.14671803 -0.032983627 0.10738745 0.11600664 -0.21567866 0.018194158 0.10064626
-0.15238065 -0.12982845 -0.0018242911 -0.13671991 0.0451704 -0.19351117 -0.02518833 0.056161273
-0.0032567808 -0.13544469 -0.07915492 0.044312656 -0.00016865104 -0.23301415 0.19083491 0.0055825133
0.15403245 0.13987379 -0.070491865 -0.14639787 0.075437255 -0.21041374 0.071709305 -0.15279499
-0.0732481 -0.114596725 0.13124813 0.087761566 0.092014104 -0.09661194 -0.108600244 -0.24388188
0.0026433808 -0.15445016 0.043664154 -0.1716298 -0.2253158 0.09436628 -0.09430339 0.16617344
0.20394275 0.038755067 -0.24195158 0.20777562 0.14017473 0.04083188 -0.17835812 -0.0856408
0.117602006 -0.20138714 0.030046334 0.09496714 0.16554055 0.16885318 0.08947058 0.05798277
0.059535768 -0.24483702 -0.021584444 -0.14874917 -0.048207924 -0.14974524 0.012292767 0.035401706
-0.12798062 -0.01891741 0.11096075 0.1345388 -0.07316768 -0.18027733 -0.13640289 -0.1755354
0.14218791 0.1394384 -0.16030306 -0.17386763 0.24953893 0.22389472 -0.17930266 -0.04495053
-0.05429826 -0.18310319 -0.16600405 0.2157783 -0.22910602 0.21471556 0.18379271 0.19528209
0.005778713 0.22281107 0.1865571 0.16928305 -0.19133115 0.06832938 -0.06738585 -0.16378526
-0.039006058 -0.15527718 -0.17682922 -0.13527879 -0.18561307 -0.13473372 -0.01522595 0.08857045
-0.13448909 -0.068415135 -0.18379001 0.027634703 -0.24573424 -0.007913492 -0.03587414 -0.15532601
0.05333265 -0.09153464 -0.13227794 0.1401221 -0.14353311 -0.2360371 0.15810321 -0.24796231
0.17750812 -0.2163074 0.22281913 -0.10982776 0.044147424 -0.0678473 0.161541 -0.23761995
-0.15729563 -0.1311011 0.0014318378 0.004990358 -0.007877983 -0.1308879 -0.15102299 0.123406515
0.13056545 0.11735331 -0.0011841309 -0.07183088 -0.1231724 -0.008917517 -0.044661112 -0.18475933
0.22984816 0.0015790161 -0.16602476 0.18034269 -0.064313486 -0.1478988 -0.09025139 -0.25096735
-0.03521337 -0.08724462 -0.21696736 0.1727238 -0.26448232 0.020616926 0.108187154 -0.020636996
00000000: ab3e 84bd 84ce 223e b3d5 c23d 35af 5abe
00000010: b715 e0bd 7d0a 77be 4ff9 71bb a8b4 a4bd
00000020: 984e 4ebe 00c7 7b3e 6c21 f1bc 3c3e 4f3d
00000030: 43b7 e93d b10d 1b3e 59f5 f5bc 80b0 03be
00000040: 286e ff3d e137 6c3e a328 cabb a31b 313e
00000050: 3211 66be fe67 c7bd a53a b53c 5753 f4bd
00000060: 4463 083e 842d 893c 56ff 273e 74f5 913d
00000070: 4057 abbd 789c 1abe a797 833c a82b 033d
00000080: 052a 4d3d 41ac 903b 2d38 d63d e0ce a7bb
00000090: bbd1 4dbe 936e 8c3d fa3a 13be 6493 79bd
000000a0: 6cdc 833d 5893 16be dfb0 ec3a 9b6b 5c3e
000000b0: 8cb2 9cbd b6ae c9bd 739c 5ebe 8534 6b3e
000000c0: a165 22bd 642f fb3d c0d6 c1bd 1c2f 5abd
000000d0: 47d3 01bd 648f 6fbe ab7d ca3d c2fb b73d
000000e0: f800 d33d 9ea0 35bd 0e45 14bc 7756 1cbe
000000f0: e641 92bc f823 dc3c af11 003e eb29 5bbe
00000100: b62f 4bbd 7872 efbd 87db 63be 3206 adbc
00000110: 6933 573d de2f 1ebe 6392 c4bd dca5 57be
00000120: 2bb9 1cbe abb2 1bbe 7b70 4f3e 8068 743e
00000130: c520 a33c 64ff b2bb b4bf e3bc 25d6 fbbd
00000140: 9861 1cbe 24bd 313d f4f7 69be 2c3b a5bc
00000150: c531 02bd 2326 17be 7e44 27be 7177 03be
00000160: 53be 803e 403d 16be d719 07bd f4ed db3d
00000170: e494 ed3d deda 5cbe ea0b 953c a01f ce3d
00000180: ac09 1cbe c0f1 04be 0d1d efba 4e00 0cbe
00000190: 9904 393d cb27 46be c257 cebc 5d09 663d
000001a0: b76f 55bb 03b2 0abe fa1b a2bd 3081 353d
000001b0: ebd7 30b9 439b 6ebe 3a6a 433e 84ed b63b
000001c0: afba 1d3e 133b 0f3e 0a5e 90bd 53e9 15be
000001d0: d97e 9a3d b376 57be 54dc 923d 4a76 1cbe
000001e0: 1a03 96bd b0b1 eabd e965 063e 56bc b33d
000001f0: e471 bc3d 7bdc c5bd ce69 debd 2cbc 79be
00000200: 923c 2d3b 2f28 1ebe 2fd9 323d b9bf 2fbe
00000210: 2fb9 66be 1c43 c13d 2322 c1bd 5f29 2a3e
00000220: 5ed6 503e a2bd 1e3d 28c2 77be 22c3 543e
00000230: f789 0f3e 543f 273d 83a3 36be 7264 afbd
00000240: 52d9 f03d 6e38 4ebe bb23 f63c 227e c23d
00000250: 7683 293e d9e7 2c3e 5a3c b73d 577f 6d3d
00000260: c7db 733d 8eb6 7abe dcd1 b0bc b451 18be
00000270: ac75 45bd d156 19be 9a67 493c 6101 113d
00000280: 5a0d 03be aff8 9abc 643f e33d 8ac4 093e
00000290: f0d8 95bd 9f9a 38be 33ad 0bbe 8dbf 33be
000002a0: b599 113e f1c8 0e3e 7c26 24be 5b0a 32be
000002b0: 2287 7f3e a844 653e 1e9b 37be 0c1e 38bd
000002c0: da67 5ebd 677f 3bbe f7fc 29be fdf4 5c3e
000002d0: c59a 6abe 65de 5b3e 2834 3c3e 07f8 473e
000002e0: 5c5b bd3b 9628 643e d308 3f3e 8958 2d3e
000002f0: 50ec 43be 46f0 8b3d 9801 8abd 53b7 27be
00000300: d1c4 1fbd fb00 1fbe b812 35be 8686 0abe
00000310: 5a11 3ebe a3f7 09be 4376 79bc 6d64 b53d
00000320: 82b7 09be 3c1d 8cbd 7333 3cbe 2c62 e23c
00000330: c2a1 7bbe 97a7 01bc c3f0 12bd c80d 1fbe
00000340: 5673 5a3d 8376 bbbd de73 07be 2b7c 0f3e
00000350: 58fa 12be b6b3 71be cfe5 213e d5e9 7dbe
00000360: b0c4 353e b07f 5dbe b32a 643e 60ed e0bd
00000370: eed3 343d 86f3 8abd 016b 253e a552 73be
00000380: 1b12 21be 5e3f 06be 81ac bb3a 2886 a33b
00000390: a812 01bc 7a07 06be c5a5 1abe 8ebc fc3d
000003a0: f3b2 053e ef56 f03d d734 9bba 121c 93bd
000003b0: d041 fcbd c71a 12bc 92ee 36bd 8d31 3dbe
000003c0: 515d 6b3e fdf6 ce3a 6502 2abe c1ab 383e
000003d0: cab6 83bd c872 17be b9d5 b8bd cb7e 80be
000003e0: e53b 10bd 4fad b2bd b12c 5ebe 82de 303e
000003f0: 3a6a 87be d4e4 a83c 3a91 dd3d eb0e a9bc

class_type.0.weight f4 [11, 32]
-0.21558912 0.126376 0.060084425 -0.20279898 0.13098885 0.16538787 0.08803062 0.11532464
-0.006275501 -0.14749874 -0.10913015 0.08054773 -0.07977616 0.17896712 -0.06133936 -0.09528051
-0.08488894 -0.0911991 0.042915862 -0.036787793 -0.03837003 0.06039078 0.15988506 -0.10767817
0.007831701 0.19272074 0.23479548 -0.13057347 -0.003128176 -0.18975264 -0.10815468 0.13302913
-0.14109963 0.034111757 0.07366933 -0.2474693 0.002407294 -0.11520931 -0.010638028 -0.12589847
-0.10475509 -0.14009215 -0.1966193 -0.012342664 0.0156097 0.12101785 0.03155704 0.12907541
-0.19560367 0.10468608 0.11786494 0.048144948 -0.10088211 0.032765217 -0.01896089 -0.223563
0.069714285 0.0064706933 -0.00246676 0.16811825 0.064129345 0.009701922 0.057960067 0.0015032354
0.12382412 -0.17257543 0.017590465 -0.033363793 -0.019690352 -0.013275315 -0.119398385 0.00079286785
0.019591674 -0.11807055 -0.08836535 0.07486369 0.119364984 -0.0740567 -0.054610923 0.028185923
-0.037626278 0.15248093 0.14041387 0.027248053 -0.10926425 0.1542901 0.05585908 -0.12358748
-0.07039286 0.042307362 0.0082719205 0.015112638 0.057218663 0.0424797 0.026547784 0.24622136
-0.17258623 0.15630925 0.11545415 0.02566677 0.16531126 0.042281844 0.14744133 0.18261738
-0.09561995 0.14684117 -0.103208065 0.09028087 0.0026806095 0.06706035 -0.15160234 0.08138784
0.07039445 0.012080082 0.031320695 0.04963019 -0.0329514 0.066054314 0.07077131 0.03258482
-0.10770006 -0.043786857 0.18808453 0.07733299 -0.057113342 -0.090600975 -0.075123586 0.04753104
-0.053391457 -0.031566765 0.14009587 -0.08118697 0.110889 -0.05355307 0.0191454 0.041414447
0.028394282 0.04313973 -0.14328872 0.013507191 -0.17535533 0.115170926 -0.10663041 -0.07254217
0.042445023 0.16596845 0.10690883 -0.037003506 -0.1329684 -0.033098526 0.018222732 -0.07200247
-0.15252334 -0.11753515 -0.14209402 0.14106022 -0.101872705 -0.1372479 -0.13347465 0.1558108
-0.017769836 -0.084253035 0.11037162 -0.16427782 0.056230076 0.051068522 -0.1636561 -0.13978302
0.01135481 0.07289082 0.045299385 0.013841349 0.041466136 -0.028321767 0.03587644 -0.17308387
0.02332568 0.1001551 -0.08569146 0.17955047 -0.027545474 -0.12430895 -0.09296332 0.006715301
-0.19035742 -0.16550624 -0.1084318 0.044646468 0.13981591 -0.12004869 -0.05407402 -0.05186343
-0.12599479 -0.1466066 0.09358325 0.18238358 -0.00027241278 0.06860755 0.032536596 -0.043664485
-0.024823243 -0.080559455 0.05998684 -0.031611826 -0.050188318 -0.022656634 -0.034885798 -0.011280669
0.08737051 -0.059722487 -0.17195761 0.0011027427 0.031034296 0.015524607 0.019112742 -0.105098985
-0.06704736 0.06427442 -0.14793418 0.13897692 -0.03779949 0.17115991 0.05218164 -0.17641446
0.014193798 -0.10216258 -0.14575587 -0.030124592 0.1123579 0.02279285 -0.0799336 0.1449843
0.06395074 -0.12891093 0.15508044 -0.14927839 0.039764117 -0.12356694 0.035231397 -0.065576434
0.11532513 -0.092976764 0.0027885744 0.031845152 -0.10691363 -0.2026546 -0.08614114 0.0061597605
-0.05376864 -0.15758727 -0.17147042 -0.12106435 0.12503408 -0.12439959 -0.17279264 0.03682523
00000000: 65c3 5cbe b668 013e 161b 763d 89aa 4fbe
00000010: f121 063e 705b 293e 6649 b43d 532f ec3d
00000020: b8a2 cdbb e909 17be a17f dfbd 35f6 a43d
00000030: af61 a3bd 2843 373e fb3e 7bbd 6e22 c3bd
00000040: 41da adbd 98c6 babd 8bc8 2f3d ccae 16bd
00000050: e429 1dbd 535c 773d e9b8 233e 5f86 dcbd
00000060: 8950 003c 9658 453e 3a6e 703e 0db5 05be
00000070: 1602 4dbb 844e 42be 3380 ddbd ca38 083e
00000080: 6c7c 10be c5b8 0b3d f2df 963d 9868 7dbe
00000090: b1c3 1d3b dcf2 ebbd 204b 2ebc 87eb 00be
000000a0: d689 d6bd 5174 0fbe 9256 49be e338 4abc
000000b0: d4bf 7f3c 35d8 f73d f441 013d 582c 043e
000000c0: 544c 48be a865 d63d 2c63 f13d a333 453d
000000d0: 489b cebd d234 063d de53 9bbc b3ed 64be
000000e0: 5dc6 8e3d 1c08 d43b 5ea9 21bb 3127 2c3e
000000f0: 3f56 833d cff4 1e3c 8967 6d3d 3608 c53a
00000100: 8097 fd3d 9db7 30be e119 903c 79a8 08bd
00000110: a94d a1bc b580 59bc 2487 f4bd 76d8 4f3a
00000120: b87e a03c f9ce f1bd e5f8 b4bd 2252 993d
00000130: a175 f43d 0aab 97bd b4af 5fbd 2ae6 e63c
00000140: 031e 1abd f623 1c3e a7c8 0f3e 4f37 df3c
00000150: efc5 dfbd 39fe 1d3e 7ecc 643d 6f1b fdbd
00000160: 222a 90bd 7c4a 2d3d f386 073c ff9a 773c
00000170: 1e5e 6a3d 32ff 2d3d bd7a d93c 7421 7c3e
00000180: 72ba 30be 880f 203e 3a73 ec3d 1e43 d23c
00000190: 5b47 293e ba2f 2d3d dcfa 163e 0d00 3b3e
000001a0: 64d4 c3bd 885d 163e c05e d3bd 2de5 b83d
000001b0: 2aad 2f3b f056 893d a53d 1bbe abae a63d
000001c0: f72a 903d 89eb 453c 214a 003d 0749 4b3d
000001d0: 0cf8 06bd 7c47 873d 8cf0 903d a977 053d
000001e0: d991 dcbd d959 33bd 3b99 403e c260 9e3d
000001f0: aeef 69bd 018d b9bd 65da 99bd e8af 423d
00000200: 00b1 5abd 274c 01bd 4b75 0f3e 5b45 a6bd
00000210: c619 e33d 775a 5bbd d0d6 9c3c 32a2 293d
00000220: 209b e83c 49b3 303d 47ba 12be 444d 5d3c
00000230: 5990 33be bcde eb3d 0b61 dabd fd90 94bd
00000240: d5da 2d3d a2f3 293e 04f3 da3d fd90 17bd
00000250: de28 08be 5292 07bd d747 953c 0876 93bd
00000260: 142f 1cbe 45b6 f0bd 1881 11be 1772 103e
00000270: a3a2 d0bd b78a 0cbe 94ad 08be de8c 1f3e
00000280: 0c92 91bc db8c acbd 840a e23d 7238 28be
00000290: 8251 663d 3a2d 513d 7795 27be 4823 0fbe
000002a0: 8609 3a3c c847 953d d98b 393d d3c6 623c
000002b0: 65d8 293d 0d03 e8bc 2df3 123d e63c 31be
000002c0: 7f15 bf3c 1e1e cd3d 017f afbd 14dc 373e
000002d0: 0ca7 e1bc b195 febd 8e63 bebd 070c dc3b
000002e0: 0eed 42be 787a 29be 7e11 debd 37df 363d
000002f0: e72b 0f3e 16dc f5bd b87c 5dbd bf6e 54bd
00000300: c704 01be 0a20 16be 93a8 bf3d c3c2 3a3e
00000310: a0d2 8eb9 1d82 8c3d 1845 053d 88d9 32bd
00000320: 1d5a cbbc 5bfc a4bd c3b4 753d 677b 01bd
00000330: 4492 4dbd 689a b9bc 69e4 0ebd 8ed2 38bc
00000340: 4fef b23d 919f 74bd a815 30be e889 903a
00000350: a33b fe3c ec5a 7e3c 5392 9c3c 233e d7bd
00000360: 2050 89bd 4fa2 833d 0f7c 17be f74f 0e3e
00000370: a3d3 1abd 8b44 2f3e 6abc 553d fea5 34be
00000380: 1b8d 683c 9d3a d1bd 0741 15be d9c7 f6bc
00000390: e61b e63d 12b8 ba3c 3ab4 a3bd c476 143e
000003a0: 9bf8 823d 3a01 04be 68cd 1e3e 6fdc 18be
000003b0: b3df 223d aa10 fdbd cc4e 103d f04c 86bd
000003c0: 952f ec3d 9a6a bebd 84c0 363b 1070 023d
000003d0: 89f5 dabd b084 4fbe c46a b0bd d1d7 c93b
000003e0: 813c 5cbd 8f5e 21be f195 2fbe 96f0 f7bd
000003f0: ef08 003e 36c5 febd 8ef0 30be 0dd6 163d

class_type.0.bias f4 [11]
0.7247374 0.28618896 0.1736347 0.099352546 0.01742906 0.08215684 -0.3263495 -0.10316174
-0.18570384 -0.39795408 -0.41805503
00000000: 6488 393f 5c87 923e 4bcd 313e 5979 cb3d
00000010: 63c7 8e3c d841 a83d 4817 a7be 7646 d3bd
00000020: 2629 3ebe a3c0 cbbe 4f0b d6be

class_school.0.weight f4 [25, 32]
0.011280384 -0.008836809 -0.036252983 -0.30741456 0.17776929 -0.1659694 0.04109376 -0.090402864
-0.028873479 -0.16237454 -0.0803572 -0.047908884 0.016171057 0.1695843 -0.22130804 0.20169455
-0.047456507 -0.0016806495 0.0541865 -0.059716806 0.1566118 0.22373225 0.23456222 -0.037555013
-0.05706904 0.1528315 0.2092114 0.072077066 -0.14487067 -0.16246362 0.13358144 0.21300058
0.115453735 0.15397777 -0.17601705 -0.19223148 -0.11455707 0.13394636 -0.099876836 0.15809412
-0.0739516 -0.21696238 -0.07557201 0.14628667 -0.20560402 0.27224135 -0.04456382 -0.032136075
-0.0436475 0.07749376 0.14315127 0.0043454897 0.15846483 0.015696367 0.22391811 0.078092895
0.0033436068 -0.050857846 0.14285779 -0.012016097 -0.08539479 -0.057211485 0.20134208 0.28412786
-0.12649438 -0.07315054 0.061407745 -0.072211094 0.09898195 0.08523741 0.12763286 0.036806688
0.09923999 -0.1392437 -0.051807567 0.129029 -0.0652245 0.09168587 0.05221366 -0.01176227
-0.07080458 0.17679155 -0.044725336 0.18944046 0.09544879 0.14605828 0.3980526 -0.21528803
-0.171651 0.1633979 0.07964133 -0.031107405 0.00034113615 -0.19333164 0.260228 0.09150052
-0.1776978 0.020674743 -0.103336476 0.0042970413 -0.066518754 -0.1805089 -0.016542127 0.029853547
-0.07465953 0.02369068 -0.063797124 0.18513623 -0.071047455 0.08109551 -0.012391758 0.13011648
-0.0742133 0.074153505 -0.076470815 -0.017272457 0.16781753 -0.022129215 0.09113751 -0.18049036
-0.013026989 0.16745546 0.31624982 0.17345825 -0.02122285 -0.2311409 0.1220736 0.24169834
0.10951317 0.15259667 -0.07200636 0.049125306 0.17859353 0.09910364 0.06873933 -0.14759079
-0.017550753 -0.22659305 -0.14607428 -0.030249473 -0.028789328 0.20136625 0.09366675 0.20238897
-0.007123426 -0.04764277 -0.050615154 -0.017516533 0.09813415 0.015839776 0.028276578 -0.041135088
0.07331442 -2.1076514e-05 0.15050551 0.031606507 -0.2021098 -0.004409423 0.101159334 0.07177389
0.14205544 0.074624345 -0.056829147 -0.08659865 -0.10779542 -0.07734191 -0.0924142 -0.123977356
-0.03668363 -0.14837602 -0.03320245 0.1509131 -0.049338724 0.06256883 0.084923066 -0.031351637
-0.018260028 -0.10847487 -0.0065950807 0.10546381 0.06047472 0.08602753 0.120093904 0.14814106
0.100264825 -0.154182 0.13617498 0.026153883 0.054466918 0.060469218 0.015004028 0.14874405
-0.09876673 -0.13967194 0.08698174 0.09559375 -0.08305202 0.054927137 -0.12616648 -0.044129822
-0.047651567 -0.0012758917 0.04895096 -0.13723344 0.139265 -0.09791581 0.03992159 -0.010633358
0.018345665 -0.015047317 0.0818515 0.10305188 0.17371626 0.14804165 -0.0674274 0.14742793
-0.07040471 -0.008891602 -0.10985161 0.010367569 -0.12259623 0.04694265 -0.1266044 0.05848654
-0.1260773 0.036208946 -0.07785355 0.025753869 0.029641861 0.15507507 -0.085440315 -0.12007506
-0.0779903 -0.12054486 -0.14524812 -0.16111505 0.18613957 0.14811696 0.0042685154 0.012750968
0.05395146 -0.06813739 0.11637353 -0.07738791 0.05162125 -0.05984302 0.06523905 -0.005876879
-0.00036541588 0.15212901 -0.10548767 0.12724176 0.0129776485 -0.035557333 0.0604406 -0.13967746
00000000: 5cd1 383c 43c8 10bc 027e 14bd 7165 9dbe
00000010: 2709 363e e2f3 29be ee51 283d 2325 b9bd
00000020: 1388 ecbc 8345 26be 5192 a4bd 1b3c 44bd
00000030: 2a79 843c 82a7 2d3e 939e 62be 0489 4e3e
00000040: c161 42bd 3d49 dcba aaf2 5d3d 9c99 74bd
00000050: d85e 203e 111a 653e 1431 703e 49d3 19bd
00000060: 3ac1 69bd dc7f 1c3e 833b 563e 249d 933d
00000070: fa58 14be dd5c 26be 93c9 083e d31c 5a3e
00000080: 0273 ec3d 59ac 1d3e d03d 34be 54d8 44be
00000090: e69c eabd 3c29 093e 3a8c ccbd 6de3 213e
000000a0: f073 97bd 632b 5ebe 7fc5 9abd 2ccc 153e
000000b0: dc89 52be 3863 8b3e 8d88 36bd 1ea1 03bd
000000c0: b9c7 32bd 0cb5 9e3d 3f96 123e 9c64 8e3b
000000d0: 9b44 223e ab95 803c ca4a 653e 2bef 9f3d
000000e0: 6a20 5b3b 5150 50bd 5049 123e 2adf 44bc
000000f0: 77e3 aebd 9756 6abd 9e2c 4e3e 3579 913e
00000100: be87 01be f3cf 95bd b086 7b3d 69e3 93bd
00000110: 0cb7 ca3d f490 ae3d 30b2 023e 9cc2 163d
00000120: 563e cb3d e795 0ebe 2c34 54bd 2e20 043e
00000130: 6c94 85bd cdc5 bb3d fedd 553d 89b6 40bc
00000140: fe01 91bd d808 353e ea31 37bd aefc 413e
00000150: a87a c33d 4d90 153e 8dcd cb3e 7774 5cbe
00000160: 48c5 2fbe c751 273e fe1a a33d f5d4 febc
00000170: 85da b239 bbf8 45be 9b3c 853e a064 bb3d
00000180: 69f6 35be 145e a93c 13a2 d3bd 32ce 8c3b
00000190: fc3a 88bd 53d7 38be 5b83 87bc 6d8f f43c
000001a0: 18e7 98bd f512 c23c 11a8 82bd 5a94 3d3e
000001b0: 5481 91bd 6715 a63d cd06 4bbc 413d 053e
000001c0: 25fd 97bd cbdd 973d bb9c 9cbd f87e 8dbc
000001d0: 5cd8 2b3e 5448 b5bc 4ea6 ba3d 77d2 38be
000001e0: 276f 55bc 7279 2b3e 7feb a13e 0a9f 313e
000001f0: 8bdb adbc 33b0 6cbe b901 fa3d c57f 773e
00000200: 7148 e03d 4d42 1c3e 1278 93bd 9e37 493d
00000210: 39e1 363e d9f6 ca3d 35c7 8c3d 0a22 17be
00000220: 99c6 8fbc 0208 68be 7f94 15be becd f7bc
00000230: 99d7 ebbc f432 4e3e 5ad4 bf3d 0e3f 4f3e
00000240: a16b e9bb 1125 43bd d651 4fbd d57e 8fbc
00000250: 8ffa c83d 6bc2 813c 48a4 e73c 447d 28bd
00000260: df25 963d 78cd b0b7 1e1e 1a3e d375 013d
00000270: dff5 4ebe ec7c 90bb a02c cf3d 30fe 923d
00000280: fb76 113e a6d4 983d aec5 68bd a25a b1bd
00000290: d8c3 dcbd 6f65 9ebd a843 bdbd d7e7 fdbd
000002a0: 9341 16bd e2ef 17be 4bff 07bd f788 1a3e
000002b0: 6717 4abd 1624 803d 25ec ad3d 936a 00bd
000002c0: 0e96 95bc 1328 debd 8c1b d8bb 69fd d73d
000002d0: 57b4 773d 342f b03d cbf3 f53d 4ab2 173e
000002e0: a557 cd3d e3e1 1dbe 7471 0b3e ab40 d63c
000002f0: b418 5f3d 92ae 773d 74d3 753c 5c50 183e
00000300: 3646 cabd 2906 0fbe 7c23 b23d a8c6 c33d
00000310: 2d17 aabd 47fb 603d c931 01be 79c1 34bd
00000320: 4a2e 43bd d23b a7ba cd80 483d ec86 0cbe
00000330: 7c9b 0e3e 1688 c8bd d284 233d 8937 2ebc
00000340: a649 963c 0689 76bc c2a1 a73d dd0c d33d
00000350: ade2 313e 3b98 173e 6017 8abd 59f7 163e
00000360: 5830 90bd 15ae 11bc e2f9 e0bd bcdc 293c
00000370: bb13 fbbd f046 403d 95a4 01be 958f 6f3d
00000380: 681a 01be d54f 143d af71 9fbd c7f9 d23c
00000390: 7dd3 f23c 00cc 1e3e 55fb aebd eae9 f5bd
000003a0: 61b9 9fbd 39e0 f6bd ecbb 14be 58fb 24be
000003b0: 5f9b 3e3e f9ab 173e e7de 8b3b 70e9 503c
000003c0: 35fc 5c3d 9e8b 8bbd 3f55 ee3d 8d7d 9ebd
000003d0: ce70 533d f41d 75bd 0d9c 853d d692 c0bb
000003e0: 4a95 bfb9 b5c7 1b3e eb09 d8bd aa4b 023e
000003f0: 34a0 543c 91a4 11bd 9090 773d 9c07 0fbe

class_school.0.bias f4 [25]
1.0873969 0.44727135 0.43566212 0.3782604 0.09307931 0.09792081 0.00082162785 -0.15701428
-0.23618086 -0.20374842 -0.002029799 -0.01662553 -0.08145344 -0.059909806 -0.07714116 -0.23637913
-0.0020066078 -0.16473486 -0.22338408 -0.108873256 -0.0038089394 -0.29111663 -0.20618278 -0.123688266
-0.20112859
00000000: d22f 8b3f c000 e53e 1b0f df3e 59ab c13e
00000010: 5ea0 be3d b58a c83d 8362 573a 5ac8 20be
00000020: 65d9 71be 6da3 50be 6006 05bb 4332 88bc
00000030: 10d1 a6bd fc63 75bd 2ffc 9dbd 5f0d 72be
00000040: 4b81 03bb 41b0 28be ccbe 64be f1f8 debd
00000050: 669f 79bb 3d0d 95be 9421 53be 4650 fdbd
00000060: a7f4 4dbe

class_tf.0.weight f4 [18, 32]
-0.18298927 0.13794576 -0.05719585 -0.12528464 0.14217131 -0.015778074 -0.056426477 0.15757856
0.18634416 0.083153166 -0.08869324 -0.09184614 -0.041328035 0.17481521 0.013455136 0.008954814
-0.22138752 -0.09154405 -0.04217127 0.13077693 -0.086528264 0.060600568 0.22747688 -0.2219255
-0.0012917889 0.09895478 0.25088125 -0.06815667 0.053739905 -0.22616762 -0.06795341 0.18907307
0.14674984 0.13625658 -0.08852389 -0.17745812 0.06762386 0.10874694 0.12502916 0.122434214
0.15845244 -0.11152274 0.0687251 0.057119727 -0.114134625 -0.030457154 -0.085329495 0.110505395
-0.11110382 -0.043832935 -0.06520272 -0.14399792 0.1565866 0.02818091 0.14616735 -0.1977341
-0.00074414053 0.04130771 0.11323679 0.050377347 -0.08017996 -0.13035622 0.11188513 0.13922851
-0.16361505 -0.16135743 -0.1813412 -0.19066013 0.15779972 -0.15632737 -0.010101883 0.06858614
-0.046518315 -0.15841235 0.006667298 0.068758816 -0.12334463 -0.009283225 -0.006633068 -0.07699019
-0.23764475 0.12864333 -0.058462583 -0.015191996 -0.108067 0.2198389 -0.006448814 0.09316029
-0.11033106 0.12854931 0.010823963 0.18073799 -0.097499244 0.049405735 0.0232232 0.22012301
0.12967657 0.11855656 -0.07930651 -0.08925873 -0.1662605 -0.16328077 -0.1532939 0.03509586
0.09491897 -0.20617622 -0.0008378479 0.019860296 -0.020009235 -0.10278319 -0.07533163 0.17380363
-0.09796884 0.064683534 0.083433665 -2.4796952e-06 0.14213625 0.107201494 0.13390307 -0.054986637
-0.03002594 0.07331849 0.14650656 0.14013115 0.004852058 -0.043710876 -0.06500051 0.027353054
0.1306828 0.13809806 0.14014958 -0.029379902 0.13728508 -0.006150891 0.0021617217 0.15465634
-0.019443074 -0.024148727 0.04398739 0.13540822 -0.11431647 0.06421317 -0.123842 0.11390555
-0.0086676525 -0.036362723 0.03026563 -0.06404824 0.076859355 0.119150676 0.18233803 -0.07067946
-0.039526224 -0.064922094 0.14578179 0.15185986 0.019282795 0.011893899 0.22561443 0.0040121954
0.13644107 -0.07105128 -0.14573653 -0.040070336 0.18452868 -0.064644344 -0.12902226 0.07239221
0.058998577 -0.082701504 -0.07732378 -0.121533446 0.010321071 -0.0030263641 -0.10037971 -0.044950463
-0.12582569 0.17924598 0.16184898 -0.01710044 -0.06134647 -0.021842612 0.20821351 0.13408723
-0.18686116 0.090491824 0.09557057 0.15149033 0.093549944 0.1221538 0.1724591 0.09639819
0.059639882 0.10088056 0.024571408 0.017502332 0.10187449 -0.011323502 0.020416982 -0.036445946
0.012205631 0.11531906 0.14867137 0.18979348 0.11710439 0.06807753 0.1030014 0.026879549
-0.016844546 0.16920249 0.038456716 0.08676206 -0.0105718905 0.17409691 0.05707091 0.031966783
-0.08662486 0.11651593 0.08651503 -0.11446449 -0.0015861752 -0.12165867 0.20514338 0.19115454
0.09019318 0.1653191 0.15783684 -0.12950641 -0.03943054 -0.07526069 0.055093117 0.09604129
-0.09473969 0.0069134077 0.15971655 0.18008031 -0.14899269 0.15644734 -0.0063245934 0.081848055
-0.1632555 -0.11707785 0.020827657 0.11019319 -0.038989663 0.14049618 -0.04838943 -0.026873428
0.0969471 0.010216302 -0.14473306 -0.111719154 -0.07724137 -0.14324766 0.15015694 -0.08336507
00000000: 8a61 3bbe a741 0d3e 3246 6abd 9e4a 00be
00000010: 5b95 113e 0541 81bc 731f 67bd 465c 213e
00000020: 01d1 3e3e 354c aa3d cda4 b5bd d419 bcbd
00000030: 9647 29bd c202 333e ee72 5c3c 36b7 123c
00000040: 69b3 62be 727b bbbd c8bb 2cbd 63ea 053e
00000050: bb35 b1bd 4d38 783d b3ef 683e 7040 63be
00000060: 3e51 a9ba cea8 ca3d 8273 803e b995 8bbd
00000070: 601e 5c3d 7c98 67be 282b 8bbd 5f9c 413e
00000080: 9745 163e d886 0b3e 034c b5bd 95b7 35be
00000090: 617e 8a3d b7b6 de3d a507 003e cabe fa3d
000000a0: 5b41 223e 0966 e4bd bfbf 8c3d 60f6 693d
000000b0: 6abf e9bd 4881 f9bc 3bc1 aebd a750 e23d
000000c0: 668a e3bd 2a8a 33bd 0189 85bd 3174 13be
000000d0: 3d58 203e a7db e63c e5ac 153e cf7a 4abe
000000e0: 6d12 43ba 4632 293d b1e8 e73d 7a58 4e3d
000000f0: 6435 a4bd 1a7c 05be 0824 e53d eb91 0e3e
00000100: b48a 27be e23a 25be 82b1 39be 693c 43be
00000110: 4096 213e 4814 20be 5e82 25bc e476 8c3d
00000120: fd89 3ebd d936 22be 5979 da3b 6cd1 8c3d
00000130: 1c9c fcbd ab18 18bc 355a d9bb 08ad 9dbd
00000140: 2559 73be 14bb 033e 7676 6fbd d9e7 78bc
00000150: 3b52 ddbd 731d 613e 9350 d3bb d2ca be3d
00000160: 40f5 e1bd 6ea2 033e fe56 313c 6113 393e
00000170: afad c7bd ab5d 4a3d 953e be3c ed67 613e
00000180: efc9 043e c8cd f23d 746b a2bd 48cd b6bd
00000190: 3140 2abe 1333 27be 13f9 1cbe adc0 0f3d
000001a0: e064 c23d dc1f 53be 05a3 5bba 0fb2 a23c
000001b0: 68ea a3bc fe7f d2bd 7847 9abd 94f9 313e
000001c0: e3a3 c8bd cd78 843d 45df aa3d d768 26b6
000001d0: 2a8c 113e 758c db3d e31d 093e ab39 61bd
000001e0: f6f8 f5bc 0128 963d d105 163e 8a7e 0f3e
000001f0: 03fe 9e3b 2d0a 33bd fd1e 85bd 8313 e03c
00000200: b6d1 053e 9469 0d3e 5f83 0f3e 1fae f0bc
00000210: 7694 0c3e 6a8d c9bb acab 0d3b 3b5e 1e3e
00000220: 1547 9fbc 8dd3 c5bc 1f2c 343d 74a8 0a3e
00000230: c11e eabd 3282 833d e0a0 fdbd 5047 e93d
00000240: c502 0ebc 14f1 14bd a0ef f73c b92b 83bd
00000250: 7068 9d3d 4505 f43d d2b6 3a3e 65c0 90bd
00000260: 40e6 21bd e0f5 84bd d247 153e 2781 1b3e
00000270: f4f6 9d3c a1de 423c 7807 673e bc78 833b
00000280: 35b7 0b3e 5583 91bd f53b 15be cb20 24bd
00000290: 16f5 3c3e 4164 84bd 691e 04be 5e42 943d
000002a0: 7ea8 713d 685f a9bd ee5b 9ebd 87e6 f8bd
000002b0: b619 293c f755 46bb e193 cdbd fa1d 38bd
000002c0: 73d8 00be 428c 373e bdbb 253e 3916 8cbc
000002d0: 7046 7bbd 47ef b2bc ec35 553e 2a4e 093e
000002e0: 8858 3fbe c753 b93d 81ba c33d 4820 1b3e
000002f0: 1d97 bf3d c62b fa3d 1e99 303e 6a6c c53d
00000300: f348 743d 789a ce3d fa49 c93c 0d61 8f3c
00000310: 93a3 d03d 3686 39bc 8441 a73c 5848 15bd
00000320: 20fa 473c 662c ec3d 4f3d 183e 3959 423e
00000330: 6dd4 ef3d 3b6c 8b3d 66f2 d23d 8032 dc3c
00000340: 93fd 89bc 6b43 2d3e ca84 1d3d 4fb0 b13d
00000350: b935 2dbc 7646 323e 30c3 693d 9aef 023d
00000360: 6068 b1bd e79f ee3d cb2e b13d 5c6c eabd
00000370: 35e7 cfba 2e28 f9bd 1b11 523e 04be 433e
00000380: 34b7 b83d 6949 293e fb9f 213e 549d 04be
00000390: eb81 21bd 4722 9abd 52a9 613d 4cb1 c43d
000003a0: e206 c2bd de89 e23b bc8c 233e f966 383e
000003b0: 8a91 18be bb33 203e 893e cfbb f49f a73d
000003c0: 732c 27be 83c6 efbd c39e aa3c f8ac e13d
000003d0: a0b3 1fbd 3bde 0f3e ff33 46bd aa25 dcbc
000003e0: 338c c63d 4762 273c e734 14be 03cd e4bd
000003f0: b930 9ebd 84af 12be bec2 193e 4ebb aabd

class_tf.0.bias f4 [18]
0.29917574 0.1421201 0.10968173 0.24534713 0.032336146 0.12377036 0.113547124 0.016350187
0.010632405 -0.14332171 -0.12790953 0.045940135 -0.11295414 -0.06494395 -0.04186899 -0.17007266
-0.23410775 -0.35328877
00000000: 902d 993e ee87 113e d1a0 e03d 473c 7b3e
00000010: e872 043d 517b fd3d 658b e83d d4f0 853c
00000020: 8a33 2e3c edc2 12be b7fa 02be b92b 3c3d
00000030: 8054 e7bd 5501 85bd d17e 2bbd 8727 2ebe
00000040: f1b9 6fbe 44e2 b4be

class_author.0.weight f4 [350, 32]
0.12244105 0.13942364 0.15274121 0.05775385 -0.11005576 -0.09791328 0.1086369 -0.03851148
-0.14517547 0.09018086 0.14822666 -0.15420614 -0.06821464 -0.051241096 -0.1363944 -0.061747864
-0.11418842 0.09296137 0.1595528 -0.08459443 -0.14727543 -0.077045284 0.11946256 -0.17429361
0.023320105 0.08208359 0.12674844 0.15267089 -0.13146344 0.14866403 -0.092062525 -0.044709805
0.03763606 0.1381138 -0.039996404 -0.18197986 0.17345455 0.100147106 0.059714194 -0.1419194
-0.1720106 0.045212846 -0.014712604 -0.028615858 0.14348845 -0.10949478 -0.14552619 0.0787743
-0.03579817 0.008456678 0.048169978 0.10354991 -0.03763654 0.1368033 -0.018701313 -0.08222252
-0.16119047 0.14921774 0.0014778976 0.05059177 0.1282105 0.089800134 -0.09949387 -0.120945424
0.110553265 0.08998465 -0.059791334 0.118539244 0.16731772 0.049379483 0.11011326 -0.15677108
0.01712603 -0.05650157 0.12294994 0.06918218 0.11959086 -0.060598418 -0.011098425 0.16186345
-0.09041896 0.16298969 0.09889279 0.05354038 -0.041835282 -0.03742399 -0.024914725 0.13422087
-0.061720394 -0.13523577 -0.056183722 0.09052457 0.07618897 0.12914008 0.032981444 0.08125051
-0.18180841 -0.04423592 0.10841557 -0.03464951 0.11246228 -0.12405578 -0.023419337 0.065876104
-0.011039798 -0.07133046 0.0073992 -0.09353779 -0.0071523646 0.07825256 0.06006183 0.04703404
-0.020731688 0.05600866 -0.1329258 -0.13346866 -0.15178181 -0.043718856 0.00018695692 -0.11482059
-0.13013983 0.13854922 -0.05257598 -0.065680794 -0.10492621 -0.0048116185 0.0739026 0.20346195
0.021330321 0.1718679 0.046124883 -0.092697695 0.058424037 0.051473077 -0.08446756 0.077649385
-0.014845328 0.07816295 -0.12844834 0.13538703 -0.12630415 0.0023572585 -0.024567861 0.09733595
0.020765249 -0.035092164 -0.08537238 0.16097288 0.16727588 0.115733095 0.06364466 0.0060807187
0.10539208 -0.12037072 0.054778405 0.1063048 -0.17231956 0.0034221131 0.180956 0.12697248
-0.12567693 -0.10656739 0.033438105 -0.04111463 0.11636858 -0.14562517 0.16496098 0.069836296
0.122243166 -0.13941063 0.14136164 0.09774772 -0.01429953 0.04399593 -0.11755453 -0.13384028
-0.051091 -0.12312254 -0.151451 -0.14798446 -0.121493965 -0.022639148 0.13040967 0.13199496
0.02987764 0.07541555 0.101758614 0.08413091 -0.11396032 -0.057082508 -0.023621913 -0.08714747
-0.13607398 -0.08083395 -0.109103106 0.10974102 0.04245972 -0.09749683 -0.14068834 0.12009243
0.15366052 -0.123170644 -0.17143604 0.048771787 -0.11186823 -0.055567395 0.0048820106 0.15450755
-0.06856718 -0.15907718 -0.06536918 -0.042540096 0.05088253 0.036673814 -0.12202827 -0.06091443
-0.0656821 0.16160552 -0.10198783 0.11383486 -0.0797901 0.11626464 -0.036623362 0.03053054
0.14764255 0.086479574 -0.10647625 -0.12786292 0.11084581 0.09953957 0.011310352 0.0019996145
0.066566825 -0.05732887 0.073049106 0.094223335 0.11682783 0.1568665 0.114026695 0.17590848
-0.025357632 0.04522377 -0.06599657 -0.0047510085 -0.00883531 0.17181101 0.06800932 0.09701034
0.050329477 -0.069194585 -0.14491652 -0.12101033 0.091261744 -0.0026526058 0.0707525 -0.07396308
00000000: 60c2 fa3d 12c5 0e3e 3168 1c3e 4d8f 6c3d
00000010: ea64 e1bd c286 c8bd 067d de3d 37be 1dbd
00000020: e1a8 14be beb0 b83d bbc8 173e 37e8 1dbe
00000030: 1eb4 8bbd 2fe2 51bd f9aa 0bbe 54eb 7cbd
00000040: 9edb e9bd 8862 be3d cf61 233e d83f adbd
00000050: 5fcf 16be ebc9 9dbd c9a8 f43d 067a 32be
00000060: ce09 bf3c 711b a83d 58ca 013e c255 1c3e
00000070: 5a9e 06be 623b 183e 478b bcbd a121 37bd
00000080: 4528 1a3d b46d 0d3e 45d3 23bd ee58 3abe
00000090: 129e 313e ed19 cd3d df96 743d 5253 11be
000000a0: 8c23 30be 1b31 393d 220d 71bc ce6b eabc
000000b0: a3ee 123e cd3e e0bd d104 15be 6c54 a13d
000000c0: 1aa1 12bd e18d 0a3c e24d 453d fa11 d43d
000000d0: c628 1abd 2a16 0c3e 7f33 99bc 4864 a8bd
000000e0: 1d0f 25be 89cc 183e 04b6 c13a 5139 4f3d
000000f0: 9d49 033e 22e9 b73d 71c3 cbbd 3cb2 f7bd
00000100: c069 e23d df49 b83d c2e7 74bd b4c4 f23d
00000110: 5655 2b3e 2442 4a3d 1083 e13d 9988 20be
00000120: e34b 8c3c 316e 67bd 2ecd fb3d 63af 8d3d
00000130: 0eec f43d 0c36 78bd 2bd6 35bc 88bf 253e
00000140: 932d b9bd c5e6 263e 4e88 ca3d 284d 5b3d
00000150: 795b 2bbd e649 19bd f719 ccbc 3271 093e
00000160: 86ce 7cbd 3f7b 0abe e720 66bd f264 b93d
00000170: f608 9c3d 4c3d 043e 8d17 073d ab66 a63d
00000180: fc2b 3abe b930 35bd fb08 de3d a5ec 0dbd
00000190: a052 e63d f510 febd e9d9 bfbc 0dea 863d
000001a0: 45e0 34bc b415 92bd fd74 f23b be90 bfbd
000001b0: 625e eabb e142 a03d 6503 763d c4a6 403d
000001c0: 80d5 a9bc 5669 653d b31d 08be 02ac 08be
000001d0: b16c 1bbe 8b12 33bd de09 4439 0f27 ebbd
000001e0: 6043 05be d9df 0d3e e959 57bd a783 86bd
000001f0: 8ee3 d6bd c8aa 9dbb 3f5a 973d 5458 503e
00000200: edbc ae3c 24fe 2f3e 72ed 3c3d 4ad8 bdbd
00000210: 0b4e 6f3d 6fd5 523d 54fd acbd a406 9f3d
00000220: d239 73bc e613 a03d f687 03be e6a2 0a3e
00000230: e055 01be 3c7c 1a3b 8a42 c9bc 1258 c73d
00000240: e21b aa3c cdbc 0fbd b7d7 aebd 13d6 243e
00000250: 5e4a 2b3e 7905 ed3d 2258 823d c440 c73b
00000260: ced7 d73d ed84 f6bd 525f 603d 55b6 d93d
00000270: 8a74 30be 8845 603b 884c 393e 1305 023e
00000280: 74b1 00be 0140 dabd 65f6 083d d067 28bd
00000290: a652 ee3d c41e 15be 88eb 283e 5506 8f3d
000002a0: a05a fa3d a9c1 0ebe 1bc1 103e f52f c83d
000002b0: 9348 6abc 1435 343d 6ec0 f0bd 6d0d 09be
000002c0: cc44 51bd ac27 fcbd f915 1bbe 3d89 17be
000002d0: d4d1 f8bd bc75 b9bc 1d8a 053e b029 073e
000002e0: f4c1 f43c 7873 9a3d d266 d03d d44c ac3d
000002f0: 0764 e9bd 59cf 69bd be82 c1bc 5f7a b2bd
00000300: fa56 0bbe 458c a5bd 7371 dfbd e6bf e03d
00000310: 3eea 2d3d 6bac c7bd 9b10 10be 05f3 f53d
00000320: 2f59 1d3e e440 fcbd ee8c 2fbe edc4 473d
00000330: 2c1b e5bd a39a 63bd 46f9 9f3b 3a37 1e3e
00000340: f36c 8cbd 21e5 22be 47e0 85bd 863e 2ebd
00000350: 336a 503d 4837 163d f5e9 f9bd 6981 79bd
00000360: 5684 86bd eb7b 253e ffde d0bd 4022 e93d
00000370: fe68 a3bd 281c ee3d 6102 16bd 2f1b fa3c
00000380: 9c2f 173e 341c b13d 3810 dabd 7fee 02be
00000390: 2103 e33d 67db cb3d 0e4f 393c f70b 033b
000003a0: 3054 883d add1 6abd c59a 953d 2af8 c03d
000003b0: 6e43 ef3d 9da1 203e d486 e93d 5a21 343e
000003c0: cfba cfbc 8f3c 393d 3629 87bd 59ae 9bbb
000003d0: fac1 10bc 3aef 2f3e 7848 8b3d 5bad c63d
000003e0: 4826 4e3d e4b5 8dbd ff64 14be 44d4 f7bd
000003f0: 70e7 ba3d 57d7 2dbb b0e6 903d f579 97bd

class_author.0.bias f4 [350]
-0.046065908 -0.01223134 0.0028349112 0.063929565 -0.015215688 0.10517082 0.02306423 0.008064551
0.14465098 0.1275044 0.19004159 0.19948676 -0.030928696 0.19796227 0.05016183 0.02165958
0.18566604 0.044837974 0.06259688 0.120812505 0.16381322 -0.05182001 0.17329499 0.06699289
0.07294077 -0.13561903 0.14421341 -0.15923898 -0.15118839 -0.15559651 0.14956607 -0.1647688
-0.11187997 0.079406396 0.02205044 -0.0019935295 0.14627944 -0.07737227 0.089847185 0.08073396
-0.07757764 0.07091147 -0.16074258 0.0693011 -0.14041142 0.14104348 -0.08250225 0.15480715
0.015289315 0.11478836 -0.14380905 -0.018840685 0.13373695 -0.14172779 -0.04202406 0.015697742
0.095837 0.09060474 0.08758321 -0.0948774 -0.021804834 -0.14235276 -0.042070813 -0.000785381
-0.009835899 -0.17731996 -0.16333924 -0.102682516 0.11882374 0.08506818 -0.12012016 -0.037190266
-0.07159832 0.07812645 -0.06496543 0.12079631 0.0809581 -0.17085677 0.060587104 -0.07331139
0.13420653 -0.036413014 -0.052781906 -0.009521254 -0.0015162172 -0.019973708 -0.038188335 -0.09123752
0.1131443 0.13985452 0.014384089 -0.15460555 0.12645654 -0.1523985 0.09739437 -0.116990715
-0.028570343 0.04511285 -0.12109983 -0.06165768 -0.08726239 -0.1301007 -0.16206972 -0.10621859
0.120059945 -0.093277246 -0.1071425 0.11518222 0.089950204 0.11888638 0.04952048 -0.034135714
-0.077049755 0.021208184 0.02460685 -0.028865902 0.0017137913 0.12280634 0.08365922 -0.06054773
0.047899686 0.087328665 -0.056596678 -0.061936177 0.15205862 0.15678467 -0.09419236 -0.09581909
-0.16261904 -0.1725727 0.05014758 0.012524818 0.09904623 0.020816768 0.055127338 -0.054899685
-0.08755646 0.031952947 0.09383784 -0.13856587 -0.025075687 0.040813588 0.09365397 0.06845103
0.15100424 0.025960125 0.1003591 -0.12582704 -0.013790009 0.16107161 -0.00075617887 -0.0168707
0.08003329 -0.049404852 0.041958775 -0.120577976 0.045262966 -0.083612956 -0.08264266 0.099011555
0.1366851 0.07149574 -0.077438354 -0.06563996 0.15398489 -0.0022799196 -0.078603886 0.017324895
0.04116181 -0.0012422162 0.14110212 -0.07030734 -0.035781257 -0.13965042 -0.0026377807 0.1563653
-0.13631582 0.06597614 -0.100818485 0.118324876 -0.14657167 0.14282112 -0.11782751 -0.06941073
-0.16596825 -0.034286305 0.026345016 0.13603656 -0.15024383 -0.07752062 -0.089318156 -0.078417
0.04157702 0.13388345 0.06872562 0.019005693 -0.10868932 0.07245379 -0.1166031 -0.14028685
0.045250848 -0.0843957 -0.029183445 -0.09846712 -0.079619884 0.05666325 0.034351043 0.094874
-0.007818381 0.0024569335 -0.14824112 0.0064934106 -0.17343627 -0.15917508 0.087347776 0.012987343
-0.096911095 -0.061378468 -0.079027325 -0.036370933 0.04945345 -0.1259141 -0.084428035 0.09476486
-0.010627487 0.14710997 0.07337585 -0.16195272 -0.110310584 0.13864414 -0.080631755 -0.033295687
0.088076904 0.061972596 0.14631982 0.105957605 -0.045278866 -0.028164258 0.1505398 -0.055780284
0.010357624 -0.1799151 0.10154557 -0.07376621 0.06336528 0.1224025 -0.12101626 -0.037350904
-0.14678477 0.06603847 0.155524 0.063234374 -0.09827248 -0.0010907918 0.01980058 0.10375553
00000000: 9baf 3cbd f565 48bc ebc9 393b 81ed 823d
00000010: 394b 79bc cd63 d73d 32f1 bc3c 2e21 043c
00000020: 631f 143e 8390 023e 439a 423e 4246 4c3e
00000030: 2d5e fdbc 9fb6 4a3e 7e76 4d3d 6e6f b13c
00000040: 3d1f 3e3e 06a8 373d cb32 803d 8c6c f73d
00000050: a7be 273e 3841 54bd 3e74 313e 9133 893d
00000060: f861 953d b7df 0abe aeac 133e 8b0f 23be
00000070: 21d1 1abe b154 1fbe d927 193e 27b9 28be
00000080: 5321 e5bd d29f a23d 20a3 b43c e0a5 02bb
00000090: 47ca 153e 5a75 9ebd cd01 b83d d957 a53d
000000a0: 07e1 9ebd 083a 913d b499 24be bced 8d3d
000000b0: 03c8 0fbe b46d 103e f1f6 a8bd c485 1e3e
000000c0: 0980 7a3c 2916 eb3d ae42 13be c857 9abc
000000d0: 57f2 083e 1721 11be 6c21 2cbd 8d98 803c
000000e0: 3046 c43d fa8e b93d d35e b33d 154f c2bd
000000f0: 0da0 b2bc ecc4 11be 7252 2cbd 07e2 4dba
00000100: c026 21bc 5d93 35be 6742 27be 364b d2bd
00000110: dc59 f33d 3a38 ae3d 8f01 f6bd d254 18bd
00000120: 24a2 92bd c300 a03d 980c 85bd 0e64 f73d
00000130: 5ccd a53d 14f5 2ebe 2f2a 783d 4824 96bd
00000140: 706d 093e d025 15bd d731 58bd 09ff 1bbc
00000150: cfbb c6ba e79f a3bc 5f6b 1cbd bdda babd
00000160: 33b8 e73d 0636 0f3e 3eab 6b3c eb50 1ebe
00000170: d37d 013e 5a0e 1cbe b376 c73d d498 efbd
00000180: 5a0c eabc 40c8 383d 3003 f8bd c38c 7cbd
00000190: a0b6 b2bd 1e39 05be 9bf5 25be 2289 d9bd
000001a0: fde1 f53d 2408 bfbd 876d dbbd a8e4 eb3d
000001b0: d037 b83d b47a f33d fdd5 4a3d e4d1 0bbd
000001c0: 43cc 9dbd c9bc ad3c 4e94 c93c 2f78 ecbc
000001d0: 4ba1 e03a e481 fb3d 8655 ab3d e600 78bd
000001e0: 7632 443d 5fd9 b23d ebd1 67bd cab0 7dbd
000001f0: 41b5 1b3e 298c 203e ede7 c0bd cd3c c4bd
00000200: 9b85 26be e6b6 30be 8d67 4d3d e534 4d3c
00000210: c0d8 ca3d ed87 aa3c 34cd 613d 7ede 60bd
00000220: cd50 b3bd 18e1 023d 0e2e c03d 36e4 0dbe
00000230: 876b cdbc 262c 273d a7cd bf3d 0e30 8c3d
00000240: dba0 1a3e 54aa d43c 1289 cd3d ced8 00be
00000250: 7def 61bc f5ef 243e 4e3a 46ba 6c34 8abc
00000260: 7ee8 a33d be5c 4abd f7dc 2b3d 96f1 f6bd
00000270: a965 393d 453d abbd 8e40 a9bd 92c6 ca3d
00000280: 2ef7 0b3e 5c6c 923d 0098 9ebd 3e6e 86bd
00000290: 37ae 1d3e b46a 15bb 13fb a0bd f0ec 8d3c
000002a0: 4999 283d dcd1 a2ba 137d 103e 4bfd 8fbd
000002b0: 5e8f 12bd 8500 0fbe 9ede 2cbb 3a1e 203e
000002c0: 6096 0bbe 801e 873d ec79 cebd 5054 f23d
000002d0: e216 16be b33f 123e 8d4f f1bd 3627 8ebd
000002e0: 95f3 29be cc6f 0cbd 81d1 d73c 2b4d 0b3e
000002f0: 85d9 19be 21c3 9ebd 70ec b6bd 1899 a0bd
00000300: aa4c 2a3d be18 093e 05c0 8c3d d4b1 9b3c
00000310: 8298 debd a762 943d 9bcd eebd 5ba7 0fbe
00000320: f458 393d a7d7 acbd 1f12 efbc 21a9 c9bd
00000330: c00f a3bd b917 683d aeb3 0c3d 4d4d c23d
00000340: ab18 00bc 8104 213b 85cc 17be adc6 d43b
00000350: 4799 31be cbfe 22be 64e3 b23d ddc8 543c
00000360: 5379 c6bd fd67 7bbd 14d9 a1bd b0f9 14bd
00000370: b38f 4a3d a0ef 00be 9be8 acbd 1414 c23d
00000380: e91e 2ebc ffa3 163e 1446 963d efd6 25be
00000390: 84ea e1bd bbf8 0d3e 4322 a5bd 0f61 08bd
000003a0: aa61 b43d fad6 7d3d ddd4 153e 4d00 d93d
000003b0: 5576 39bd bbb8 e6bc 1b27 1a3e de79 64bd
000003c0: 06b3 293c aa3b 38be 20f7 cf3d bd12 97bd
000003d0: a8c5 813d 29ae fa3d 5fd7 f7bd 43fd 18bd
000003e0: bf4e 16be 2d3f 873d af41 1f3e 0681 813d
000003f0: 1543 c9bd e6f8 8eba d334 a23c c87d d43d

momentum_buffer f4 [64]
-0.0035942225 -0.011367399 -0.04380963 -0.00016709534 0.00765644 -0.03640978 -0.08751503 0.0004414778
-0.0041099093 0.0016304535 -1.7448643e-05 0.006095437 -0.021923358 -0.005922865 -0.036863316 0.016257066
-0.01729532 0.0023584901 -0.014505762 -0.025341682 -0.048891455 -0.047157586 -0.0017520011 -0.002035001
0.009466416 0.02279019 -0.07059895 0.0023028178 -0.01632643 -0.0003829052 -0.0013464361 0.007244238
0.0007004675 -0.0013898949 -0.0036784075 -0.047731526 -0.07832152 -0.008960332 -0.011142526 -0.0510547
0.00937388 -0.065839425 0.00629814 0.0055681835 -0.014129783 -0.0016085919 -0.061958894 0.010895404
-0.009177875 0.015529655 -0.0016638205 0.008171907 -0.034983095 0.0044600195 -0.02978036 0.014584949
-0.057027485 0.005579282 -0.021823542 0.0039907107 -0.08458913 0.009337468 0.0031965096 0.0009327417
00000000: 0c8d 6bbb 543e 3abc ba71 33bd 5036 2fb9
00000010: e0e2 fa3b 6c22 15bd 143b b3bd 2676 e739
00000020: 6bac 86bb f1b4 d53a ad5e 92b7 3bbc c73b
00000030: 9d98 b3bc 9814 c2bb fdfd 16bd 8a2d 853c
00000040: eaae 8dbc e690 1a3b 93a9 6dbc 5c99 cfbc
00000050: 6842 48bd 5028 41bd 67a3 e5ba a75d 05bb
00000060: 0719 1b3c 7eb2 ba3c 2f96 90bd dfea 163b
00000070: 01bf 85bc aac0 c8b9 e67a b0ba 1361 ed3b
00000080: 949f 373a 222d b6ba 7011 71bb 2282 43bd
00000090: 0867 a0bd 5bce 12bc 248f 36bc bc1e 51bd
000000a0: e794 193c d2d6 86bd a160 ce3b 4f75 b63b
000000b0: 9b80 67bc 63d7 d2ba 9cc8 7dbd a382 323c
000000c0: cc5e 16bc 1870 7e3c 8d14 daba 76e3 053c
000000d0: 6f4a 0fbd 5b25 923b f1f5 f3bc b6f5 6e3c
000000e0: a795 69bd 69d2 b63b 49c7 b2bc 82c4 823b
000000f0: 113d adbd 2efc 183c 887c 513b 3c83 743a
