Models/gcn-time/gcn_time_best_model.pth.tar (torch, 196573 bytes, 24 tensors)

gc1.bias f4 [64]
-0.013305827 0.0038766947 0.06929274 -0.017175797 -0.049140077 0.062464543 0.10166352 0.0013901258
0.015726265 -0.020814413 0.0002066147 -0.03982416 0.2573248 0.007031281 0.036866415 -0.013384442
0.07147478 -0.0115116285 0.009426756 0.0935227 0.070263416 0.12926726 -0.0046252366 -0.013580373
-0.0032535854 0.02043073 0.10784798 -0.015819836 7.174117e-05 -0.00040593924 0.001315239 -0.020765865
-0.0028844166 0.0019886107 -0.002429202 0.1035316 0.09984381 0.012957345 -0.025504328 0.18297227
-0.017578358 0.098098464 -0.030011317 -0.037342984 0.030868746 0.00365572 0.076664805 -0.06674145
0.005047061 -0.0015089044 -0.019000456 -0.046490233 0.27574992 -0.031014157 0.087951735 0.09302259
0.12041222 0.0021074137 0.022269608 -0.0144335395 0.16838105 -0.003967207 -0.011649726 -0.007366135
00000000: af00 5abc 2510 7e3b 5ae9 8d3d 42b4 8cbc
00000010: 1b47 49bd d2da 7f3d f734 d03d e234 b63a
00000020: 5ed4 803c fd82 aabc b6a6 5839 a91e 23bd
00000030: 14c0 833e a966 e63b 3d01 173d 6b4a 5bbc
00000040: 5f61 923d 459b 3cbc ae72 1a3c d488 bf3d
00000050: 44e6 8f3d a35e 043e 4c8f 97bb 3680 5ebc
00000060: 1b3a 55bb 595e a73c 67df dc3d 9a98 81bc
00000070: bf73 9638 3ed4 d4b9 1964 ac3a 2d1d aabc
00000080: 7b08 3dbb 5a53 023b 3f33 1fbb 6008 d43d
00000090: e97a cc3d 0b4b 543c 74ee d0bc 155d 3b3e
000000a0: 7d00 90bc d9e7 c83d 4bda f5bc f5f4 18bd
000000b0: 74e0 fc3c ce94 6f3b 7002 9d3d beaf 88bd
000000c0: d161 a53b 6ec6 c5ba d8a6 9bbc 8b6c 3ebd
000000d0: 182f 8d3e 6711 febc 0a20 b43d a182 be3d
000000e0: af9a f63d 891c 0a3b c16e b63c a77a 6cbc
000000f0: 156c 2c3e 58ff 81bb 7ede 3ebc 9e5f f1bb

gc1.lin.weight f4 [64, 128]
-0.04955536 0.034143526 -0.014820644 -0.10437868 -0.050560415 0.09592543 0.12120818 -0.0031739697
0.004516003 0.17211542 0.0015161147 0.17442375 0.05118902 0.0290775 -0.022985201 0.1600022
0.1281203 0.05814152 0.1455277 0.17017688 0.007233524 0.0176316 -0.0644187 -0.13018385
0.03361545 -0.17730583 0.06460698 0.02084272 0.13764702 0.14709936 0.12758192 -0.119503126
0.06334606 0.14457743 -0.012181689 0.068911426 -0.038995083 0.04591004 -0.08378543 0.083799735
0.1561757 -0.027219703 0.091144785 0.07255467 -0.0060342564 -0.1281808 -0.080956444 0.023174962
-0.16473559 -0.1672142 -0.026282908 -0.14518555 -0.10569233 0.1331838 -0.053701304 0.15357262
-0.043727405 0.16860138 0.010698296 0.12585944 -0.101945244 -0.12801598 -0.13278821 -0.092966825
-0.11702547 0.06697175 0.022352647 0.02742235 -0.026658783 -0.09124916 -0.16351318 -0.10261426
-0.00976573 0.021237014 -0.12830137 -0.099355586 0.11506636 -0.09129607 -0.02571658 -0.09775567
0.14324193 0.018319815 -0.13653766 0.08085973 -0.07028364 0.16288233 0.15884586 -0.1460792
0.16964957 0.11237757 -0.039494947 -0.16230865 0.08430116 -0.046471886 -0.09260984 -0.097675554
0.15189034 0.09591412 0.024315415 -0.100716636 0.17292795 0.00032540964 -0.00034083764 0.08928003
0.0155712655 0.11116803 -0.15310949 0.035647992 0.16159934 -0.010254924 0.093455665 -0.0050606667
-0.17102377 -0.1666819 -0.09868581 -0.09158859 0.094631895 -0.09750195 -0.15511267 -0.077882275
0.11607902 -0.11341503 0.028141696 -0.0077659707 0.062022686 -0.14079727 -0.14708003 -0.16557913
0.0345179 -0.05005881 -0.012655867 0.12492811 0.0006309507 -0.082817875 0.0675159 0.14762463
-0.043410793 0.0037674617 -0.039647005 0.16762371 -0.010808452 0.16122021 -0.1419156 0.08468607
-0.14611934 0.061233122 0.0277954 -0.17381886 0.096479975 0.11631632 -0.032549627 -0.05275859
-0.036240783 -0.0014990149 -0.17202868 0.012442412 -0.021738218 0.06266383 0.15342434 0.14931962
0.0049067815 0.13993809 0.13682075 0.14038527 -0.02389568 0.111737214 0.070761174 -0.042418867
0.07595723 0.09200426 0.10449238 0.16241015 -0.020815793 -0.17259815 0.16528326 -0.063045174
-0.13286452 -0.1353099 0.14105803 0.015700297 -0.10098245 0.06897116 -0.12906578 -0.098038435
0.0012203133 -0.010436775 -0.040353864 -0.12275576 0.14190501 -0.030529156 -0.117759235 0.15063451
-0.0003240608 -0.14743519 0.10745808 0.06994134 0.12206777 0.058497466 0.14161432 0.111026175
-0.06644431 0.11569703 -0.17000464 0.037833832 0.122162536 0.13834193 0.09282907 0.113861404
0.16253716 -0.11644204 0.14852332 -0.060852334 -0.15112245 0.040627602 0.03731528 -0.023568805
0.044259973 0.14256977 0.062064335 -0.07371216 -0.16268265 -0.07921553 0.03810932 0.022241838
-0.07264299 0.14756948 0.0852558 0.05500103 -0.049428295 0.16339576 0.02452667 0.16817269
0.048059195 -0.03501392 -0.15018794 0.03707623 0.028464772 -0.15605442 0.06502816 0.08696761
0.13989052 -0.1001085 0.10897603 -0.15531324 0.006276023 0.12552415 -0.0748103 0.03958853
0.030589707 -0.11263598 -0.06719783 0.08944062 0.011550691 0.14831492 0.048785694 -0.16046028
00000000: 90fa 4abd 15da 0b3d 49d2 72bc 7dc4 d5bd
00000010: 7018 4fbd 8d74 c43d ff3b f83d 6002 50bb
00000020: fbfa 933b 063f 303e 5eb8 c63a 249c 323e
00000030: 94ab 513d f033 ee3c 764b bcbc 9ed7 233e
00000040: f831 033e cd25 6e3d 3705 153e d942 2e3e
00000050: 3307 ed3b 2570 903c f4ed 83bd ea4e 05be
00000060: 5bb0 093d a98f 35be aa50 843d 5abe aa3c
00000070: 57f3 0c3e 37a1 163e d6a4 023e 0ebe f4bd
00000080: 94bb 813d 1b0c 143e b595 47bc 6f21 8d3d
00000090: 4fb9 1fbd 2b0c 3c3d b297 abbd 329f ab3d
000000a0: 86ec 1f3e dbfb debc 1eaa ba3d 8b97 943d
000000b0: 03bb c5bb d441 03be 7ecc a5bd 6bd9 bd3c
000000c0: 72b0 28be 333a 2bbe 414f d7bc 85ab 14be
000000d0: 3875 d8bd 5661 083e e6f5 5bbd 2442 1d3e
000000e0: 821b 33bd d7a5 2c3e e847 2f3c 4ce1 003e
000000f0: abc8 d0bd 9f16 03be a2f9 07be 6465 bebd
00000100: 0dab efbd 7c28 893d e61c b73c d6a4 e03c
00000110: 8563 dabc d7e0 babd 0070 27be 6d27 d2bd
00000120: 7100 20bc 3ff9 ad3c 6f61 03be f17a cbbd
00000130: e9a7 eb3d 6ff9 babd 94ab d2bc 2034 c8bd
00000140: 03ae 123e 7013 963c 87d0 0bbe c999 a53d
00000150: def0 8fbd a0ca 263e 7da8 223e c995 15be
00000160: 9eb8 2d3e 3626 e63d 74c5 21bd 3d34 26be
00000170: 16a6 ac3d 4e59 3ebd 3aaa bdbd 1f0a c8bd
00000180: 2489 1b3e 9f6e c43d 1f31 c73c 8644 cebd
00000190: 0614 313e be9b aa39 74b2 b2b9 73d8 b63d
000001a0: 9f1e 7f3c 10ac e33d bcc8 1cbe a103 123d
000001b0: 4c7a 253e 4504 28bc af65 bf3d f3d3 a5bb
000001c0: db20 2fbe a9ae 2abe c91b cabd cc92 bbbd
000001d0: 5ece c13d 1aaf c7bd dbd5 1ebe be80 9fbd
000001e0: d6ba ed3d 2446 e8bd 6a89 e63c af79 febb
000001f0: 800b 7e3d 292d 10be 269c 16be 938d 29be
00000200: a462 0d3d 770a 4dbd 8e5a 4fbc 4fda ff3d
00000210: 6266 253a 6b9c a9bd c745 8a3d e92a 173e
00000220: 84cf 31bd 85e7 763b e664 22bd 8da5 2b3e
00000230: ef15 31bc e916 253e 5352 11be e46f ad3d
00000240: 4fa0 15be 95cf 7a3d 2eb3 e33c 92fd 31be
00000250: 4b97 c53d 4037 ee3d c252 05bd 6419 58bd
00000260: 3771 14bd 987a c4ba 4928 30be 42db 4b3c
00000270: 5914 b2bc e555 803d 451b 1d3e 3ee7 183e
00000280: 11c9 a03b ee4b 0f3e bd1a 0c3e 28c1 0f3e
00000290: e0c0 c3bc 7bd6 e43d 3ceb 903d 68bf 2dbd
000002a0: 778f 9b3d bb6c bc3d 1a00 d63d d94e 263e
000002b0: e285 aabc 92bd 30be 0440 293e d41d 81bd
000002c0: a30d 08be ae8e 0abe 8471 103e e99d 803c
000002d0: e3cf cebd c040 8d3d d229 04be 60c8 c8bd
000002e0: ebf2 9f3a 02ff 2abc 184a 25bd 5f67 fbbd
000002f0: 8c4f 113e 4818 fabc c12b f1bd ef3f 1a3e
00000300: b4e6 a9b9 40f9 16be fb12 dc3d 683d 8f3d
00000310: abfe f93d 0a9b 6f3d 5803 113e b161 e33d
00000320: f413 88bd 91f2 ec3d b215 2ebe a6f7 1a3d
00000330: 5a30 fa3d 82a9 0d3e 2b1d be3d 2b30 e93d
00000340: 2470 263e 2a79 eebd 7f16 183e 4c40 79bd
00000350: d8bf 1abe 2169 263d e8d7 183d 5e13 c1bc
00000360: f249 353d cffd 113e 2c37 7e3d 67f6 96bd
00000370: 4896 26be c03b a2bd 8518 1c3d 8434 b63c
00000380: d9c5 94bd 741c 173e 989a ae3d c348 613d
00000390: 5375 4abd 3851 273e 28ec c83c 7635 2c3e
000003a0: b8d9 443d c26a 0fbd deca 19be 3fdd 173d
000003b0: f42e e93c bbcc 1fbe 7c2d 853d 131c b23d
000003c0: 763f 0f3e af05 cdbd d32e df3d 6f0a 1fbe
000003d0: 19a7 cd3b 6789 003e 2436 99bd 9527 223d
000003e0: 4497 fa3c b1ad e6bd 049f 89bd a52c b73d
000003f0: 1c3f 3d3c dedf 173e 82d3 473d b34f 24be

gc2.bias f4 [32]
-0.044162326 0.005678207 0.040528398 -0.14354664 0.09597034 -0.07158552 -0.025974115 -0.05405408
-0.06818802 -0.13280164 0.00796717 0.099394135 -0.12821823 0.17631602 -0.06964949 -0.0049539874
-0.16548833 -0.031497095 0.05633118 0.038918365 0.1375353 0.09821488 0.2987509 -0.14991203
-0.12459676 0.052870177 0.19152617 0.04833622 -0.10009466 -0.08740165 0.116073534 0.22550164
00000000: 8ee3 34bd 4110 ba3b 1b01 263d e4fd 12be
00000010: 198c c43d 6e9b 92bd abc7 d4bc d067 5dbd
00000020: 29a6 8bbd 27fd 07be bc88 023c 278f cb3d
00000030: a44b 03be 308c 343e 64a4 8ebd 0f55 a2bb
00000040: c675 29be 1903 01bd 86bb 663d dd68 1f3d
00000050: 0ed6 0c3e e224 c93d e1f5 983e 8a82 19be
00000060: 962c ffbd 668e 583d 701f 443e 33fc 453d
00000070: 6efe ccbd a3ff b2bd f6b7 ed3d e7e9 663e

gc2.lin.weight f4 [32, 64]
-0.063829795 0.15990303 0.09309552 -0.21194938 -0.108573034 -0.24420163 -0.009197889 -0.079988785
-0.20152192 0.24630915 -0.029438917 0.051167212 0.08998462 0.1515141 -0.030709563 -0.12719816
0.12271705 0.23102655 -0.005892843 0.17071652 -0.22901036 -0.10481969 0.022359747 -0.11845423
0.13471468 0.01731904 0.15890713 0.071445785 -0.0833097 -0.15062775 0.016073385 0.032817937
0.0501167 0.0045022136 0.106021464 -0.0100133605 -0.20653562 0.068438545 -0.14048685 -0.07229611
0.06604253 -0.15288135 0.0020360458 0.21606179 -0.07747504 -0.09820974 -0.22045085 0.23143402
-0.037514295 0.12443109 -0.09395386 -0.052143615 -0.05920456 -0.2330169 0.09671146 0.08618403
0.09881489 -0.044279948 -0.008778028 -0.15258493 -0.030328691 0.02810623 0.12519675 -0.21396527
-0.051040895 -0.12290497 -0.22862005 -0.024768855 0.04972699 -0.1592329 -0.104419395 -0.21195956
-0.15477078 -0.15317239 0.20257948 0.23664771 -0.00802695 -0.0073040924 -0.03850866 -0.12712653
-0.15944432 0.042803936 -0.22929664 -0.03387458 -0.047458224 -0.15805468 -0.16392179 -0.13039015
0.24885412 -0.15259877 -0.03953133 0.10666337 0.11478051 -0.21630797 0.018176688 0.09974431
-0.15236074 -0.12988241 -0.0040180827 -0.14243981 0.030917553 -0.19461349 -0.029750375 0.021765102
-0.0063499897 -0.14624238 -0.08020412 0.0414478 -0.008313674 -0.23356172 0.18495081 0.00041027812
0.15174384 0.13795657 -0.072440974 -0.15210143 0.036029045 -0.21306841 0.06732508 -0.16229853
-0.0834319 -0.1149245 0.12844831 0.08759814 0.07300862 -0.098395534 -0.10898127 -0.2439758
0.0016227843 -0.15729654 0.048193485 -0.17429346 -0.22829358 0.09878519 -0.088017695 0.16572826
0.20416704 0.037901994 -0.24196638 0.20573686 0.1754478 0.04025239 -0.17760098 -0.08807683
0.122754976 -0.20176625 0.030193431 0.10364257 0.16889319 0.17979012 0.08906244 0.05602101
0.058034737 -0.24405627 -0.013641746 -0.14947717 -0.049004134 -0.15011004 0.012253081 0.034150656
-0.12801948 -0.018939594 0.10981089 0.14094199 -0.06562635 -0.18019772 -0.14143848 -0.15952678
0.13975164 0.14854999 -0.16164683 -0.17691737 0.25118837 0.22389099 -0.17324485 -0.05091202
-0.05453008 -0.1836054 -0.16816406 0.20995584 -0.20409364 0.21244192 0.18989798 0.20411666
0.016317911 0.22283429 0.18741119 0.16909598 -0.17719659 0.067563854 -0.067961544 -0.16401327
-0.035652373 -0.15081719 -0.18125747 -0.12777492 -0.18181936 -0.13940541 -0.026336407 0.09053028
-0.13246153 -0.066643044 -0.18378489 0.031729255 -0.29095358 -0.00621197 -0.029092012 -0.14778233
0.049573418 -0.090472005 -0.13159354 0.138286 -0.14528205 -0.25180048 0.15970743 -0.24488714
0.18360485 -0.2117332 0.21144754 -0.108391784 0.04738952 -0.06643663 0.16158485 -0.23434688
-0.15715882 -0.13104713 0.005965645 -0.005198564 -0.01151109 -0.13013352 -0.1352463 0.1088489
0.13865153 0.11359992 0.0005149 -0.06699738 -0.118363164 -0.007858365 -0.046979554 -0.17660448
0.23586881 0.007286219 -0.16239543 0.18783918 -0.13559563 -0.14331993 -0.095866926 -0.25857103
-0.047399368 -0.086782955 -0.21339117 0.17304629 -0.28243956 0.023725007 0.10897094 -0.02024517
00000000: 32b9 82bd 9fbd 233e dda8 be3d 4209 59be
00000010: 8a5b debd fe0f 7abe beb2 16bc 29d1 a3bd
00000020: c35b 4ebe 7738 7c3e e229 f1bc b694 513d
00000030: db49 b83d 8326 1b3e 9f92 fbbc 3c40 02be
00000040: 1453 fb3d 3992 6c3e c018 c1bb 50d0 2e3e
00000050: b181 6abe b5ab d6bd ca2b b73c 2298 f2bd
00000060: a5f2 093e a9e0 8d3c 8db8 223e 2b52 923d
00000070: 479e aabd 293e 1abe 55ac 833c 1a6c 063d
00000080: 2b47 4d3d 4e87 933b c821 d93d 140f 24bc
00000090: 137e 53be 8229 8c3d c9db 0fbe fc0f 94bd
000000a0: 4e41 873d ee8c 1cbe 2e6f 053b 4d3f 5d3e
000000b0: 3cab 9ebd 3022 c9bd debd 61be 0afd 6c3e
000000c0: 97a8 19bd bad5 fe3d e26a c0bd 8b94 55bd
000000d0: 7b80 72bd fb9b 6ebe a810 c63d 4181 b03d
000000e0: 765f ca3d e45e 35bd b8d1 0fbc 393f 1cbe
000000f0: e073 f8bc 093f e63c 9433 003e b619 5bbe
00000100: 4210 51bd 9ab5 fbbd 601b 6abe 0ee8 cabc
00000110: 87ae 4b3d f30d 23be d6d9 d5bd ed0b 59be
00000120: 3b7c 1ebe 39d9 1cbe ff70 4f3e c753 723e
00000130: 7883 03bc 2b57 efbb 42bb 1dbd 752d 02be
00000140: 5f45 23be 2e53 2f3d bdcc 6abe 12c0 0abd
00000150: 8e63 42bd 16d9 21be 1ddb 27be ff84 05be
00000160: 9dd3 7e3e da42 1cbe 9beb 21bd 5372 da3d
00000170: 0b12 eb3d d67f 5dbe 47e7 943c bf46 cc3d
00000180: 7404 1cbe e5ff 04be 1faa 83bb bedb 11be
00000190: cf46 fd3c c248 47be 0fb7 f3bc ba4c b23c
000001a0: 9313 d0bb 90c0 15be 0f42 a4bd 2bc5 293d
000001b0: 1336 08bc ce2a 6fbe bf63 3d3e 991a d739
000001c0: bd62 1b3e 7d44 0d3e ef5b 94bd 7ac0 1bbe
000001d0: 3193 133d 9b2e 5abe bbe1 893d 9631 26be
000001e0: 58de aabd 895d ebbd f487 033e a766 b33d
000001f0: 8b85 953d 9983 c9bd 9231 dfbd cbd4 79be
00000200: 9bb3 d43a 5812 21be 8866 453d fc79 32be
00000210: cbc5 69be e44f ca3d 9f42 b4bd abb4 293e
00000220: 2a11 513e 1f3f 1b3d 09c6 77be afac 523e
00000230: 97a8 333e b1df 243d 08dd 35be a061 b4bd
00000240: f666 fb3d d09b 4ebe 3758 f73c 8e42 d43d
00000250: 56f2 2c3e e71a 383e 5e66 b63d 4976 653d
00000260: d5b5 6d3d e3e9 79be a181 5fbc 8b10 19be
00000270: 8fb8 48bd 72b6 19be 26c1 483c 8fe1 0b3d
00000280: 8a17 03be 3527 9bbc 88e4 e03d 1953 103e
00000290: 1c67 86bd c085 38be 40d5 10be fd5a 23be
000002a0: 0e1b 0f3e 7d1d 183e bf86 25be d429 35be
000002b0: c39b 803e ae43 653e 1967 31be 1f89 50bd
000002c0: ef5a 5fbd 0e03 3cbe 3333 2cbe aafe 563e
000002d0: ecfd 50be 608a 593e 9e74 423e f503 513e
000002e0: 24ad 853c ac2e 643e b8e8 3f3e 7f27 2d3e
000002f0: 0673 35be eb5e 8a3d 6c2f 8bbd 18f3 27be
00000300: 3908 12bd d26f 1abe 8f9b 39be 6ed7 02be
00000310: db2e 3abe 4bc0 0ebe 73bf d7bc f067 b93d
00000320: ffa3 07be 267c 88bd 1b32 3cbe 89f6 013d
00000330: def7 94be c88d cbbb 5f52 eebc 4054 17be
00000340: 7f0d 4b3d 6349 b9bd 75c0 06be d89a 0d3e
00000350: d1c4 14be feeb 80be 588a 233e b2c3 7abe
00000360: e902 3c3e 97d0 58be b485 583e 83fc ddbd
00000370: 831b 423d ee0f 88bd 8076 253e a1f8 6fbe
00000380: 3eee 20be 3831 06be 757b c33b b758 aabb
00000390: 0399 3cbc b941 05be 027e 0abe 2cec de3d
000003a0: abfa 0d3e 13a7 e83d 5bfa 063a ec35 89bd
000003b0: 6368 f2bd 5fc0 00bc a26d 40bd ced7 34be
000003c0: 9887 713e 3cc1 ee3b fd4a 26be ea58 403e
000003d0: 95d9 0abe 76c2 12be e155 c4bd 6c63 84be
000003e0: d725 42bd 43bb b1bd 3783 5abe 0c33 313e
000003f0: eb9b 90be f25a c23c 282c df3d 33d9 a5bc

class_type.0.weight f4 [11, 32]
-0.19863936 0.14224666 0.09329205 -0.18838651 0.12614015 0.16783533 0.058911443 0.110093616
-0.0056278375 -0.13081162 -0.086649306 0.060982186 -0.059915073 0.18531866 -0.064711936 -0.107243635
-0.07786797 -0.15429632 0.067759335 -0.055139884 -0.037630934 0.0412921 0.16609567 -0.104536936
-0.015172407 0.20155671 0.21171515 -0.16019385 -0.033107538 -0.18439215 -0.10229519 0.12899666
-0.120525025 0.035386425 0.080113634 -0.19189645 -0.0041316645 -0.1148753 -0.009846034 -0.14825697
-0.11833393 -0.10290491 -0.18602297 -0.012080975 0.045541395 0.07999737 0.071268976 0.11018801
-0.1639461 0.12194895 0.104228444 0.06820805 -0.11669741 -0.003216935 -0.0788213 -0.19814287
0.06751844 -0.0322854 -0.06422667 0.1814716 0.08508466 0.053301618 0.037921198 -0.05963439
0.13827005 -0.1707998 0.019853294 0.0052445023 -0.025648993 -0.008898398 -0.11556985 -0.0109754745
0.016637683 -0.08845645 -0.08349272 0.06769351 0.1429747 -0.106139936 -0.03012245 0.015857963
-0.009053166 0.15949942 0.13156293 0.031064918 -0.12654868 0.12971574 0.0067792796 -0.10190823
-0.06560631 0.021024494 -0.03776999 0.016987527 0.0736644 0.07001388 0.0062978826 0.19802642
-0.16579096 0.15903084 0.115862004 0.05101634 0.15938812 0.05031803 0.15601537 0.17667988
-0.09493526 0.17108302 -0.102299444 0.07970889 0.02174692 0.043494944 -0.13775876 0.075032845
0.09455021 0.01490081 0.022601688 0.046068493 -0.04730799 0.048040327 0.029031198 0.052950475
-0.09935285 -0.056473922 0.15780827 0.07337752 -0.04255625 -0.07479419 -0.09656879 0.007769092
-0.047787495 -0.03016614 0.1399361 -0.058684886 0.10485658 -0.046939958 0.026068214 0.03747456
0.02996174 0.06409657 -0.14452812 0.0029823391 -0.1585656 0.09425129 -0.09556967 -0.0783176
0.0644917 0.16983137 0.10043505 -0.041777156 -0.1488828 -0.049313556 -0.019083561 -0.05380471
-0.14237763 -0.1286248 -0.17264736 0.13868932 -0.08916594 -0.1236199 -0.15361577 0.119643
-0.014178193 -0.08350676 0.105834246 -0.1426203 0.046094898 0.06402371 -0.15341029 -0.13978381
0.019080974 0.0992123 0.042734925 -0.0051366943 0.06325829 -0.056739237 0.047703214 -0.1769234
0.051877238 0.10229894 -0.09629348 0.16690882 -0.048174746 -0.14127634 -0.14560202 0.03162183
-0.1712731 -0.1742599 -0.14234038 0.03652373 0.15930323 -0.10695708 -0.08307365 -0.09700781
-0.13513981 -0.14931752 0.088613726 0.16000542 0.005001737 0.06425539 0.033390857 -0.03838509
-0.024373347 -0.09987711 0.05525882 -0.022978738 -0.06659295 -0.004035417 -0.047706008 -0.003572786
0.069543235 -0.05516126 -0.16954678 0.003357808 0.041839726 0.032303713 0.048922155 -0.11981003
-0.06943966 0.07454617 -0.11904316 0.14306007 -0.04450822 0.15659161 0.06461995 -0.14741696
0.007203963 -0.104983635 -0.15396677 -0.043021686 0.1121572 0.024638455 -0.075746514 0.15339464
0.06943863 -0.1369469 0.14859572 -0.15099384 0.033362817 -0.12045522 0.027929565 -0.059884988
0.111599796 -0.08991086 0.0016773308 0.025776166 -0.10760619 -0.19398932 -0.081799775 0.0042955503
-0.04495406 -0.15033017 -0.16017038 -0.12213407 0.12719607 -0.13476174 -0.17364734 0.04538394
00000000: 1e68 4bbe 1ca9 113e e70f bf3d 65e8 40be
00000010: e22a 013e 06dd 2b3e 204d 713d c378 e13d
00000020: b969 b8bb 7bf3 05be 3175 b1bd 75c8 793d
00000030: 8269 75bd 2dc4 3d3e b187 84bd 8da2 dbbd
00000040: 3e79 9fbd dbff 1dbe 68c5 8a3d 5cda 61bd
00000050: e522 1abd e821 293d fc14 2a3e 7617 d6bd
00000060: b095 78bc e264 4e3e dbcb 583e db09 24be
00000070: c59b 07bd 4cd1 3cbe 2480 d1bd b317 043e
00000080: d3d5 f6bd 5bf1 103d 9e12 a43d 8180 44be
00000090: ea62 87bb be43 ebbd 4351 21bc add0 17be
000000a0: 0f59 f2bd cfbf d2bd ce7c 3ebe 48ef 45bc
000000b0: 9d89 3a3d a9d5 a33d 78f5 913d 40aa e13d
000000c0: 7de1 27be 5fc0 f93d b975 d53d aab0 8b3d
000000d0: 0dff eebd 37d3 52bb 106d a1bd f7e5 4abe
000000e0: 1c47 8a3d b23d 04bd 4689 83bd b1d3 393e
000000f0: de40 ae3d cc52 5a3d 4253 1b3d 3143 74bd
00000100: aa96 0d3e 25e6 2ebe 60a3 a23c 13da ab3b
00000110: d61d d2bc 96ca 11bc e3af ecbd 7ad2 33bc
00000120: c04b 883c a828 b5bd 3bfe aabd e5a2 8a3d
00000130: f667 123e e55f d9bd 5bc3 f6bc 8fe8 813c
00000140: bb53 14bc d153 233e 6fb8 063e db7b fe3c
00000150: fa95 01be 34d4 043e b824 de3b 43b5 d0bd
00000160: 9a5c 86bd 8f3b ac3c b4b4 1abd 6d29 8b3c
00000170: 5cdd 963d 7063 8f3d 785e ce3b 70c7 4a3e
00000180: 1bc5 29be fbd8 223e 0f49 ed3d 82f6 503d
00000190: a436 233e 471a 4e3d 7ec2 1f3e 92eb 343e
000001a0: 6b6d c2bd 6330 2f3e 5f82 d1bd 6a3e a33d
000001b0: 9926 b23c c127 323d a210 0dbe d2aa 993d
000001c0: 8aa3 c13d 8722 743c 2d27 b93c 51b2 3c3d
000001d0: 06c6 41bd efc5 443d d6d2 ed3c 99e2 583d
000001e0: 8279 cbbd 3351 67bd 7e98 213e f446 963d
000001f0: 764f 2ebd b22d 99bd dcc5 c5bd de93 fe3b
00000200: d2bc 43bd fb1e f7bc 694b 0f3e 905f 70bd
00000210: 0cbf d63d 1d44 40bd 028d d53c ed7e 193d
00000220: 5372 f53c 1045 833d 2eff 13be 5973 433b
00000230: 055f 22be d206 c13d 08ba c3bd fa64 a0bd
00000240: 3914 843d 46e8 2d3e e4b0 cd3d 861e 2bbd
00000250: bc74 18be 03fd 49bd 2155 9cbc 5462 5cbd
00000260: 71cb 11be 38b6 03be 78ca 30be 9304 0e3e
00000270: a29c b6bd 6e2c fdbd 744d 1dbe 6407 f53d
00000280: a74b 68bc 9805 abbd a0bf d83d 0e0b 12be
00000290: 01ce 3c3d dd1e 833d 9617 1dbe 7d23 0fbe
000002a0: b44f 9c3c d12f cb3d d10a 2f3d b751 a8bb
000002b0: 908d 813d 6767 68bd 7264 433d 682b 35be
000002c0: 3a7d 543d 1b82 d13d 8435 c5bd 25ea 2a3e
000002d0: e252 45bd bfaa 10be b218 15be e485 013d
000002e0: 3762 2fbe 3071 32be adc1 11be e899 153d
000002f0: 6320 233e 500c dbbd 8522 aabd 08ac c6bd
00000300: 1762 0abe b1e6 18be 1d7b b53d 76d8 233e
00000310: 9ce5 a33b 5498 833d dac4 083d af39 1dbd
00000320: 9daa c7bc 5f8c ccbd 1357 623d e83d bcbc
00000330: e261 88bd 883b 84bb 6067 43bd 6725 6abb
00000340: af6c 8e3d c6f0 61bd ac9d 2dbe ac0e 5c3b
00000350: 2260 2b3d e650 043d 9962 483d f65e f5bd
00000360: 6136 8ebd aaab 983d e6cc f3bd 577e 123e
00000370: 404e 36bd 8d59 203e 7757 843d 79f4 16be
00000380: 390f ec3b a901 d7bd 77a9 1dbe 8237 30bd
00000390: adb2 e53d 96d6 c93c fd20 9bbd 7c13 1d3e
000003a0: d735 8e3d cf3b 0cbe 7a29 183e 219e 1abe
000003b0: 73a7 083d 3ab1 f6bd 8bcc e43c f649 75bd
000003c0: 6f8e e43d 2f23 b8bd e2d9 db3a 8a28 d33c
000003d0: a260 dcbd 23a5 46be a486 a7bd b0c1 8c3b
000003e0: c021 38bd 27f0 19be b403 24be 6d21 fabd
000003f0: b03f 023e fbfe 09be 9cd0 31be 83e4 393d

class_type.0.bias f4 [11]
0.32534882 0.1125609 0.088032626 0.08575467 0.008176722 0.108762644 -0.23678775 -0.0025484858
-0.03671472 -0.250593 -0.24971634
00000000: 1f94 a63e 5486 e63d 734a b43d 25a0 af3d
00000010: a8f7 053c f3be de3d 7d78 72be 7f04 27bb
00000020: 2d62 16bd ba4d 80be a4b5 7fbe

class_school.0.weight f4 [25, 32]
0.036475338 -0.004653701 0.0031954322 -0.27429044 0.16579571 -0.17413867 -0.005567317 -0.10606495
-0.032456595 -0.1476808 -0.05244535 -0.060149692 0.03754031 0.17487952 -0.22136557 0.18873703
-0.050987136 -0.055555616 0.08796261 -0.06322988 0.17032953 0.20198146 0.24603602 -0.041541763
-0.094306864 0.14812292 0.17663862 0.06460586 -0.18450154 -0.13878365 0.1590561 0.21431154
0.14537206 0.162286 -0.16606525 -0.11434728 -0.12969428 0.14297226 -0.09545148 0.13514046
-0.081893586 -0.1551122 -0.063991435 0.1311199 -0.15673134 0.20966816 0.0047496622 -0.059511706
0.015631093 0.08210035 0.12610668 0.010733973 0.12325903 -0.038765498 0.1243359 0.12528217
0.0117205 -0.09578575 0.046111327 -0.011882459 -0.054553684 -0.005464652 0.15981303 0.18507427
-0.086326085 -0.06119125 0.07221312 0.04158302 0.07393167 0.1129097 0.14813706 0.009105174
0.100513235 -0.034475498 -0.035882104 0.08440608 0.020612441 -0.010256396 0.12080409 -0.046735447
0.032288983 0.17923239 -0.0762749 0.18081887 0.03097271 0.0625986 0.22522067 -0.13444959
-0.14429241 0.105868556 -0.06823663 -0.049678423 0.057021867 -0.115316615 0.17791414 -0.07628512
-0.15004067 0.031353317 -0.09852016 0.09439491 -0.09019283 -0.15496624 -0.0019672492 0.00993334
-0.0710474 0.10779775 -0.055546798 0.14328153 -0.00015071017 -0.0030382087 0.03823174 0.10358812
0.00935769 0.07218263 -0.099700935 -0.032908678 0.11558243 -0.08859369 -0.053416144 -0.11165725
0.015053172 0.12451802 0.19689389 0.15782917 0.021717174 -0.17225926 0.050521586 0.10445852
0.1332303 0.16290739 -0.07179524 0.13465144 0.15105917 0.12997171 0.084015064 -0.16056412
-0.0049942904 -0.14140728 -0.14279228 -0.08303552 0.043845035 0.11856894 0.13629593 0.18092847
0.07944756 -0.056960527 -0.071182445 -0.046366084 0.041023847 -0.047012497 -0.12151381 0.03175103
0.1094046 -0.0339399 0.030633075 0.0083708055 -0.15921298 0.049404975 0.024073571 -0.06742733
0.14969996 0.07837406 -0.05696364 -0.0609972 -0.11558698 -0.067684524 -0.086041875 -0.12774615
-0.03335483 -0.12170753 -0.03288364 0.13601947 -0.027471552 0.036300275 0.098970965 -0.039093804
0.0093340585 -0.111259736 -0.013935064 0.09621885 0.04153987 0.06655238 0.07358253 0.171457
0.11249607 -0.16538443 0.09966978 0.019405851 0.06909416 0.07605491 -0.010410141 0.10571361
-0.09587449 -0.13806014 0.08468751 0.11187126 -0.08952404 0.06314139 -0.12127662 -0.044743586
-0.043099266 0.016432887 0.047736716 -0.15070875 0.15507053 -0.117064044 0.04770388 -0.013870025
0.03766741 -0.016541803 0.076496586 0.09417628 0.16008459 0.13651216 -0.1020365 0.1638324
-0.058965918 -0.014280113 -0.13566224 0.0043961876 -0.11170108 0.05686384 -0.14618345 0.0279078
-0.13214485 0.035112225 -0.08138851 0.011166156 0.033280402 0.15230787 -0.08615816 -0.11617323
-0.07726096 -0.13346231 -0.14923769 -0.15624726 0.1758177 0.16002837 -0.0045534647 0.01765073
0.042354003 -0.06661763 0.11960241 -0.07690294 0.058844913 -0.049222857 0.08487343 -0.014481561
-0.0017719237 0.15962073 -0.08777937 0.12958741 0.00733606 -0.04564103 0.0686112 -0.12077195
00000000: 2a67 153d 137e 98bb 756a 513b cc6f 8cbe
00000010: 5ac6 293e 6851 32be 0a6e b6bb 9538 d9bd
00000020: 35f1 04bd a339 17be efd0 56bd 865f 76bd
00000030: dec3 193d 9e13 333e a8ad 62be 4844 413e
00000040: e3d7 50bd 498e 63bd be25 b43d ab7e 81bd
00000050: dd6a 2e3e 3ad4 4e3e def0 7b3e b227 2abd
00000060: f523 c1bd 89ad 173e c1e0 343e 1450 843d
00000070: f9ed 3cbe 4d1d 0ebe 9adf 223e 7c74 5b3e
00000080: 6adc 143e 4d2e 263e 020d 2abe e82e eabd
00000090: 94ce 04be 5267 123e 117c c3bd 4362 0a3e
000000a0: d3b7 a7bd bcd5 1ebe f10d 83bd 4c44 063e
000000b0: 2e7e 20be 40b3 563e 0ea3 9b3b 8cc2 73bd
000000c0: c70c 803c 3a24 a83d 1c22 013e 8cdd 2f3c
000000d0: 3b6f fc3d 92c8 1ebd d2a3 fe3d f849 003e
000000e0: 5707 403c 522b c4bd 3bdf 3c3d a5ae 42bc
000000f0: af73 5fbd d310 b3bb 07a6 233e 1c84 3d3e
00000100: bbcb b0bd ada3 7abd 79e4 933d f552 2a3d
00000110: 7d69 973d 333d e73d 3eb1 173e de2d 153c
00000120: e2d9 cd3d 2e36 0dbd 1df9 12bd 18dd ac3d
00000130: 6cdb a83c 710a 28bc 2268 f73d ab6d 3fbd
00000140: 7441 043d b288 373e 0436 9cbd 9528 393e
00000150: 7bba fd3c b233 803d 3fa0 663e 27ad 09be
00000160: 64c1 13be 9dd1 d83d a5bf 8bbd 9a7b 4bbd
00000170: c38f 693d 1e2b ecbd 202f 363e 5f3b 9cbd
00000180: 43a4 19be 566c 003d f0c4 c9bd 1e52 c13d
00000190: 05b7 b8bd 78af 1ebe f7ec 00bb 73bf 223c
000001a0: 4d81 91bd 11c5 dc3d 0a85 63bd 65b8 123e
000001b0: f407 1eb9 af1c 47bb e398 1c3d 0226 d43d
000001c0: ff50 193c 7dd4 933d 0130 ccbd 40cb 06bd
000001d0: 7bb6 ec3d 9c70 b5bd e3ca 5abd 8eac e4bd
000001e0: 94a1 763c 4e03 ff3d 8d9e 493e f89d 213e
000001f0: 37e8 b13c bb64 30be b9ef 4e3d 59ee d53d
00000200: 866d 083e 32d1 263e 6209 93bd 11e2 093e
00000210: 41af 1a3e 4e17 053e 1710 ac3d ec6a 24be
00000220: 25a7 a3bb 12cd 10be 2438 12be 870e aabd
00000230: da96 333d 46d4 f23d 2991 0b3e 5045 393e
00000240: 67b5 a23d 714f 69bd 1ac8 91bd 5dea 3dbd
00000250: 9f08 283d 2d90 40bd 3bdc f8bd 5e0d 023d
00000260: 850f e03d 9104 0bbd 37f2 fa3c b425 093c
00000270: ba08 23be df5c 4a3d f035 c53c 5717 8abd
00000280: f24a 193e 9482 a03d b552 69bd 33d8 79bd
00000290: deb8 ecbd 2f9e 8abd b936 b0bd e3cf 02be
000002a0: 139f 08bd cc41 f9bd ffb0 06bd b048 0b3e
000002b0: 050c e1bc 99af 143d 4ab1 ca3d d320 20bd
000002c0: e1ed 183c 25dc e3bd e54f 64bc 630e c53d
000002d0: b625 2a3d 9d4c 883d 70b2 963d 6c92 2f3e
000002e0: 5764 e63d 895a 29be ab1f cc3d 05f9 9e3c
000002f0: 3d81 8d3d adc2 9b3d 4c8f 2abc 6180 d83d
00000300: d859 c4bd a35f 0dbe a570 ad3d c21c e53d
00000310: 6158 b7bd 4650 813d e05f f8bd 0d45 37bd
00000320: db88 30bd 439e 863c 9387 433d 6553 1abe
00000330: cfca 1e3e 46bf efbd 2565 433d 1a3f 63bc
00000340: 2449 1a3d ad82 87bc 3eaa 9c3d 7edf c03d
00000350: 37ed 233e d8c9 0b3e 83f8 d0bd aec3 273e
00000360: 3f86 71bd 23f7 69bc 0beb 0abe e50d 903b
00000370: 89c3 e4bd 0fea 683d 1db1 15be e69e e43c
00000380: fb50 07be d6d1 0f3d 05af a6bd 41f2 363c
00000390: 0851 083d 98f6 1b3e b073 b0bd 3bec edbd
000003a0: ff3a 9ebd 58aa 08be c4d1 18be 48ff 1fbe
000003b0: 8e09 343e 7ade 233e 3b35 95bb 4498 903c
000003c0: 647b 2d3d d36e 88bd 1cf2 f43d 4a7f 9dbd
000003d0: 5d07 713d e89d 49bd 1fd2 ad3d 1244 6dbc
000003e0: e53f e8ba 9e73 233e acc5 b3bd 90b2 043e
000003f0: 5563 f03b 17f2 3abd 0784 8c3d 4957 f7bd

class_school.0.bias f4 [25]
0.50039095 0.2234786 0.19255514 0.20516242 -0.04150802 0.071808524 0.001697121 -0.10080017
-0.1880006 -0.16323175 0.08782825 0.06508077 0.021388285 0.009680694 -0.013234993 -0.14769602
0.08512795 -0.080981866 -0.14753966 -0.027681265 0.10194399 -0.2124119 -0.12203392 -0.039745074
-0.13627157
00000000: 9f19 003f 93d7 643e 2d2d 453e 1916 523e
00000010: 5004 2abd 5910 933d ee71 de3a 5270 cebd
00000020: 3b83 40be 3926 27be 4cdf b33d 1149 853d
00000030: 7c36 af3c c69b 1e3c 96d7 58bc a03d 17be
00000040: 9057 ae3d d2d9 a5bd a314 17be d2c3 e2bc
00000050: 03c8 d03d 8182 59be ebec f9bd bbcb 22bd
00000060: c68a 0bbe

class_tf.0.weight f4 [18, 32]
-0.16299038 0.1417738 -0.0408744 -0.082345776 0.13205537 -0.010387066 -0.059027433 0.14320888
0.18196662 0.121237576 -0.07182336 -0.103376195 -0.011269303 0.14425495 0.04125293 -0.0073054926
-0.19122498 -0.10048746 -0.05068338 0.13530129 -0.10331334 0.028870815 0.17688553 -0.20155887
-0.0039835107 0.07499968 0.20005918 -0.07565684 0.06834415 -0.19632713 -0.08669025 0.13914253
0.16049969 0.1401342 -0.08080042 -0.14704739 0.05930897 0.11398527 0.12138556 0.11433074
0.15882759 -0.085077874 0.07602264 0.044855736 -0.09253444 -0.05406753 -0.068862036 0.1006372
-0.08755778 -0.05183808 -0.066080764 -0.14750858 0.1436628 0.0041068406 0.10885429 -0.17930983
-0.0006529457 0.027093241 0.07387835 0.045246117 -0.0738269 -0.1092779 0.09904092 0.10036222
-0.14770478 -0.1566593 -0.17774697 -0.13966312 0.14688338 -0.14525008 -0.0071227816 0.055651695
-0.048521254 -0.11576874 0.013150657 0.048261687 -0.08551337 -0.054191653 0.02164979 -0.09267365
-0.19596858 0.12784441 -0.068851404 -0.02018774 -0.13351695 0.18506537 -0.08121757 0.12845576
-0.09798606 0.104841895 -0.055306725 0.17610548 -0.07623534 0.083739795 -0.0125988 0.15062776
0.13810937 0.12327005 -0.07915252 -0.06064838 -0.17431791 -0.15816922 -0.15514643 0.028787116
0.09655081 -0.18403044 -2.594942e-05 0.008018035 0.00079541747 -0.12590165 -0.063691124 0.16526563
-0.076427646 0.05953351 0.08285209 -0.0055257794 0.13092728 0.08984306 0.094887406 -0.035374694
-0.02400378 0.062025473 0.10833191 0.13821666 0.010556884 -0.026805693 -0.083450004 -0.009424949
0.14898725 0.14450115 0.14573343 0.022600772 0.12369902 0.008474414 0.00961682 0.14387232
-0.017149437 0.025067883 0.050199676 0.111621544 -0.074837334 0.018088793 -0.09477193 0.098940164
0.040544074 -0.03953526 0.017661702 -0.073621705 0.04425401 0.07947498 0.10186145 -0.031102156
-0.025096744 -0.08884263 0.07671513 0.14074367 0.0439002 0.04658149 0.18738966 -0.07474128
0.14713085 -0.066680335 -0.14445776 -0.0039809016 0.17526875 -0.05388929 -0.12587951 0.0645417
0.061284132 -0.04893792 -0.075074136 -0.14014219 0.03818271 -0.036697038 -0.08250439 -0.05504813
-0.092929184 0.17714176 0.15590242 -0.026655553 -0.08149348 -0.048096318 0.15111902 0.16273601
-0.17646098 0.07547344 0.048223667 0.14525005 0.108405486 0.14672631 0.14469546 0.042283114
0.07389647 0.105494924 0.028600896 0.06069903 0.09097571 0.0027037559 0.030478416 -0.04545301
0.014784983 0.1585155 0.15468001 0.1670164 0.15322134 0.02732686 0.12787186 0.014897291
0.025471468 0.16802922 0.02565602 0.0774357 -0.039094236 0.14169182 -0.014317912 0.06506152
-0.07256891 0.09810887 0.028925814 -0.12608686 0.021716803 -0.092446566 0.16890955 0.123952135
0.09397998 0.16709298 0.15965012 -0.117352754 -0.044204418 -0.07031207 0.059033547 0.09510967
-0.09156464 0.02197747 0.1618877 0.17107 -0.1364372 0.14335419 0.00096530566 0.078278005
-0.14831993 -0.12036492 0.016562875 0.10502377 -0.049131878 0.13066123 -0.0726848 -0.015616507
0.10301867 0.0044442965 -0.16492064 -0.11728424 -0.0693141 -0.13547489 0.13597295 -0.10743572
00000000: f3e6 26be 272d 113e ea6b 27bd e7a4 a8bd
00000010: 8639 073e 832e 2abc c0c6 71bd 59a5 123e
00000020: 7555 3a3e 684b f83d 2018 93bd e6b6 d3bd
00000030: e2a2 38bc 92b7 133e d5f8 283d ea62 efbb
00000040: 7bd0 43be 5fcc cdbd 6099 4fbd 6c8c 0a3e
00000050: f295 d3bd 7d82 ec3c 7b21 353e 7365 4ebe
00000060: 1c88 82bb 6f99 993d 50dc 4c3e f9f1 9abd
00000070: 05f8 8b3d fb09 49be a88a b1bd 617b 0e3e
00000080: 085a 243e 577f 0f3e b17a a5bd 9793 16be
00000090: f6ed 723d 1c71 e93d fe98 f83d 3c26 ea3d
000000a0: b3a3 223e 4f3d aebd c2b1 9b3d a6ba 373d
000000b0: b282 bdbd ea75 5dbd 8a07 8dbd e01a ce3d
000000c0: 7e51 b3bd 2b54 54bd 5a55 87bd 7d0c 17be
000000d0: 571c 133e ad92 863b ffee de3d ff9c 37be
000000e0: 722a 2bba a5f2 dd3c 884d 973d fe53 393d
000000f0: 8f32 97bd 17cd dfbd f7d5 ca3d b58a cd3d
00000100: ec3f 17be 4c6b 20be 4d03 36be d903 0fbe
00000110: 9968 163e 70bc 14be 3966 e9bb 08f3 633d
00000120: 39be 46bd 2918 edbd da75 573c 0cae 453d
00000130: a221 afbd 11f8 5dbd e75a b13c afcb bdbd
00000140: fdab 48be a5e9 023e f701 8dbd c260 a5bc
00000150: abb8 08be c781 3d3e 6655 a6bd e889 033e
00000160: eaac c8bd 59b7 d63d 4e89 62bd ff54 343e
00000170: 4621 9cbd c57f ab3d 326b 4ebc 2a3e 1a3e
00000180: 8b6c 0d3e 0275 fc3d b71a a2bd 706a 78bd
00000190: 6580 32be 1df7 21be b5de 1ebe f5d2 eb3c
000001a0: 6ebc c53d 7a72 3cbe f5ad d9b7 145e 033c
000001b0: 9083 503a 5dec 00be 7e70 82bd 653b 293e
000001c0: 1986 9cbd 69d9 733d 5bae a93d 9911 b5bb
000001d0: cd11 063e a3ff b73d 5454 c23d 0ee5 10bd
000001e0: 93a3 c4bc 6c0e 7e3d 1fdd dd3d ab88 0d3e
000001f0: c8f6 2c3c 9d97 dbbc d6e7 aabd 1a6b 1abc
00000200: 1d90 183e 1cf8 133e 253b 153e 4125 b93c
00000210: e955 fd3d 45d8 0a3c de8f 1d3c 4453 133e
00000220: fa7c 8cbc 295b cd3c 2d9e 4d3d d699 e43d
00000230: 5144 99bd f32e 943c c917 c2bd 24a1 ca3d
00000240: 8b11 263d baef 21bd 46af 903c fac6 96bd
00000250: b143 353d c7c3 a23d bc9c d03d f3c9 febc
00000260: b097 cdbc 20f3 b5bd d21c 9d3d 1c1f 103e
00000270: b2d0 333d 3ccc 3e3d 13e3 3f3e f511 99bd
00000280: 78a9 163e b38f 88bd bcec 13be 3972 82bb
00000290: a779 333e 04bb 5cbd 8fe6 00be 702e 843d
000002a0: 1205 7b3d 2173 48bd 78c0 99bd 6f81 0fbe
000002b0: 7965 1c3d a24f 16bd 10f8 a8bd 267a 61bd
000002c0: a851 bebd a664 353e e2a4 1f3e bf5c dabc
000002d0: 0ee6 a6bd a500 45bd f2be 1a3e 45a4 263e
000002e0: 30b2 34be d291 9a3d 2e86 453d 6ebc 143e
000002f0: b203 de3d 6c3f 163e 0c2b 143e 0f31 2d3d
00000300: 0857 973d b90d d83d 6d4c ea3c 8c9f 783d
00000310: 7951 ba3d 7f31 313b dfad f93c ef2c 3abd
00000320: b73c 723c e351 223e 7064 1e3e 5906 2b3e
00000330: 0ee6 1c3e 94dc df3c d7f0 023e c413 743c
00000340: 8aa9 d03c da0f 2c3e 932c d23c 9c96 9e3d
00000350: 4721 20bd a917 113e ad95 6abc f93e 853d
00000360: 029f 94bd 4eed c83d d4f5 ec3c ea1c 01be
00000370: 70e7 b13c a054 bdbd a0f6 2c3e 9eda fd3d
00000380: 9378 c03d 6c1a 2b3e 527b 233e a456 f0bd
00000390: b10f 35bd c6ff 8fbd 29cd 713d dcc8 c23d
000003a0: 3e86 bbbd 180a b43c e4c5 253e f92c 2f3e
000003b0: 31b6 0bbe 71cb 123e 910c 7d3a 3850 a03d
000003c0: 2ee1 17be e281 f6bd deae 873c b416 d73d
000003d0: 823e 49bd 0fcc 053e c5db 94bd 61dc 7fbc
000003e0: 74fb d23d 76a1 913b f5e0 28be b832 f0bd
000003f0: 8df4 8dbd eeb9 0abe 7e3c 0b3e 4207 dcbd

class_tf.0.bias f4 [18]
0.07533599 -0.0050938562 -0.022533275 0.15902139 -0.085487105 0.049669437 0.03598048 -0.002611965
-0.019868033 -0.16323224 -0.072374135 0.12444702 0.0135722775 0.0820573 0.08599376 -0.053656336
-0.07953345 -0.2312539
00000000: c149 9a3d 5dea a6bb b497 b8bc 81d6 223e
00000010: dd13 afbd 2e72 4b3d 4560 133d 802d 2bbb
00000020: 49c2 a2bc 5a26 27be e438 94bd 14de fe3d
00000030: 425e 5e3c a80d a83d 7f1d b03d bfc6 5bbd
00000040: 6fe2 a2bd d3cd 6cbe

class_author.0.weight f4 [350, 32]
0.130572 0.14282566 0.15394378 0.08512836 -0.11918693 -0.08817033 0.113114305 -0.04237845
-0.14115989 0.11751982 0.14953423 -0.17103785 -0.045009617 -0.0775978 -0.1226638 -0.06894954
-0.08614565 0.0890512 0.15353604 -0.094242565 -0.1660427 -0.09777194 0.072009265 -0.15097597
0.034482863 0.07133939 0.088070236 0.14490208 -0.11814466 0.16573884 -0.11619236 -0.08922059
0.04403997 0.14094067 -0.039319497 -0.15984711 0.16605425 0.10785682 0.06375702 -0.14538093
-0.16881311 0.067026 -0.013547148 -0.042103264 0.16219407 -0.13062724 -0.13482587 0.07304724
-0.013579883 0.0053789383 0.04300187 0.09597716 -0.052530017 0.12050396 -0.056932222 -0.06406045
-0.15188614 0.14067477 -0.0295654 0.044216186 0.13869189 0.10340065 -0.11899137 -0.1563277
0.11659617 0.09263906 -0.058847252 0.13963856 0.16052593 0.05665694 0.11350414 -0.15971573
0.020247055 -0.035931762 0.12355041 0.056653082 0.13749494 -0.08076876 -0.00096331205 0.1564241
-0.06960125 0.16065429 0.0943377 0.04641238 -0.056125347 -0.053292595 -0.06066585 0.15186563
-0.052951757 -0.14364563 -0.08580137 0.084626205 0.08586347 0.14223787 0.014628274 0.04753848
-0.17760418 -0.042404316 0.109174535 -0.02028556 0.10770286 -0.11880341 -0.021077238 0.06364565
-0.008912071 -0.05695041 0.008139413 -0.10256478 0.005374837 0.064008944 0.06715258 0.0430114
-0.0060723843 0.054020453 -0.13628677 -0.13847603 -0.16143197 -0.054678407 -0.025128325 -0.10258316
-0.123922125 0.13291329 -0.073026635 -0.069779925 -0.09799935 0.004261065 0.0609372 0.17999074
0.025235437 0.17333674 0.046803102 -0.080027945 0.054425716 0.055947974 -0.082110405 0.07545712
-0.013063607 0.09104507 -0.12769833 0.12774436 -0.115547284 -0.009689337 -0.018185304 0.09399998
0.033490725 -0.03660352 -0.087962545 0.15674247 0.15882277 0.10601036 0.041887887 0.016651947
0.11020882 -0.12553291 0.03723561 0.10300992 -0.16642252 0.0115387 0.16999033 0.10640348
-0.121774584 -0.10469129 0.033795886 -0.02720406 0.11204719 -0.14059632 0.16701254 0.06770211
0.12440972 -0.12572125 0.1419415 0.08930901 -0.0025446971 0.030429281 -0.11077223 -0.13741241
-0.03698914 -0.12532523 -0.15456218 -0.15287822 -0.13088566 -0.032833945 0.10627358 0.14385629
0.035837676 0.069998704 0.08189904 0.08035913 -0.107312515 -0.048422914 -0.03600884 -0.10965897
-0.13175012 -0.07905453 -0.108803354 0.124093294 0.037691694 -0.0923228 -0.13844387 0.11776893
0.15605408 -0.10898498 -0.1707761 0.03977851 -0.099596664 -0.069541276 0.011839917 0.15081972
-0.053940162 -0.1608785 -0.06834459 -0.04745141 0.0413108 0.02591542 -0.14703348 -0.04909991
-0.059754223 0.15596016 -0.12218388 0.10970818 -0.07299662 0.12559383 -0.04925451 0.007289955
0.15168898 0.088076465 -0.10639608 -0.113504715 0.105982564 0.10483192 0.013702297 -0.0002453048
0.068742126 -0.04298554 0.07372889 0.08500476 0.12919645 0.14277986 0.12103178 0.17204934
-0.010851793 0.04322642 -0.06918183 -0.010041961 -0.018344283 0.16108558 0.042667862 0.109228306
0.05640862 -0.074889496 -0.16531691 -0.12505993 0.09839391 0.0063721975 0.05773966 -0.09727647
00000000: abb4 053e e440 123e 70a3 1d3e c757 ae3d
00000010: 4718 f4bd a592 b4bd 79a8 e73d 0795 2dbd
00000020: 388c 10be 3bae f03d 801f 193e 8c24 2fbe
00000030: 015c 38bd 98eb 9ebd 2937 fbbd 6b35 8dbd
00000040: 216d b0bd 7a60 b63d 8d38 1d3e 3f02 c1bd
00000050: 1907 2abe a83c c8bd 9879 933d 7299 1abe
00000060: e73d 0d3d 631a 923d 2b5e b43d 3661 143e
00000070: d4f5 f1bd 71b7 293e 43f6 edbd 49b9 b6bd
00000080: 4163 343d c052 103e 7b0d 21bd f6ae 23be
00000090: 200a 2a3e 09e4 dc3d 0a93 823d bdde 14be
000000a0: 58dd 2cbe ed44 893d dbf4 5dbc 7974 2cbd
000000b0: 3416 263e 26c3 05be cb0f 0abe cb99 953d
000000c0: 287e 5ebc ce41 b03b bb22 303d ac8f c43d
000000d0: b729 57bd c8ca f63d c331 69bd 2032 83bd
000000e0: 0a88 1bbe 0c0d 103e 2333 f2bc 081c 353d
000000f0: 3f05 0e3e b8c3 d33d bfb1 f3bd 5e14 20be
00000100: f9c9 ee3d 8cb9 bd3d d109 71bd 69fd 0e3e
00000110: e960 243e 1c11 683d dc74 e83d 858c 23be
00000120: 27dd a53c 2f2d 13bd ff07 fd3d 100d 683d
00000130: 79cb 0c3e 176a a5bd c786 7cba a42d 203e
00000140: 1a8b 8ebd 8f82 243e 2034 c13d e81a 3e3d
00000150: b1e3 65bd 5649 5abd c17c 78bd aa82 1b3e
00000160: f1e3 58bd d717 13be a1b8 afbd 8150 ad3d
00000170: 30d9 af3d cea6 113e 6eab 6f3c b6b7 423d
00000180: dfdd 35be 26b0 2dbd e696 df3d e72d a6bc
00000190: 5193 dc3d 344f f3bd 2caa acbc a758 823d
000001a0: ef03 12bc d544 69bd 2c5b 053c 7c0d d2bd
000001b0: 671f b03b 1f17 833d 4b87 893d b92c 303d
000001c0: dafa c6bb 8d44 5d3d c28e 0bbe a9cc 0dbe
000001d0: 6c4e 25be 77f6 5fbd ebd9 cdbc 1f17 d2bd
000001e0: e2ca fdbd 6c1a 083e fd8e 95bd c7e8 8ebd
000001f0: e2b3 c8bd 67a0 8b3b 4999 793d 7e4f 383e
00000200: 8cba ce3c 307f 313e 9cb4 3f3d b1e5 a3bd
00000210: 80ed 5e3d b429 653d 8029 a8bd 4389 9a3d
00000220: bd08 56bc d675 ba3d 5ac3 02be 6bcf 023e
00000230: 0ea4 ecbd 06c0 1ebc 59f9 94bc 1083 c03d
00000240: 922d 093d 93ed 15bd b525 b4bd 1981 203e
00000250: 70a2 223e f61b d93d a292 2b3d aa69 883c
00000260: 29b5 e13d b38b 00be 5e84 183d ddf6 d23d
00000270: aa6a 2abe d10c 3d3c f211 2e3e 11ea d93d
00000280: f464 f9bd 6368 d6bd 8e6d 0a3d 0ddb debc
00000290: ff78 e53d 7bf8 0fbe 5605 2b3e 67a7 8a3d
000002a0: 86ca fe3d 12bd 00be 1d59 113e a4e7 b63d
000002b0: efc4 26bb d446 f93c 8ddc e2bd d7b5 0cbe
000002c0: ed81 17bd 4255 00be 8c45 1ebe 1c8c 1cbe
000002d0: e406 06be e37c 06bd f6a5 d93d 104f 133e
000002e0: 87ca 123d 7b5b 8f3d afba a73d 5493 a43d
000002f0: aac6 dbbd 1b57 46bd 017e 13bd e294 e0bd
00000300: 81e9 06be 57e7 a1bd 4bd4 debd a024 fe3d
00000310: 9b62 1a3d bc13 bdbd 3bc4 0dbe d630 f13d
00000320: a4cc 1f3e 8433 dfbd eedf 2ebe caee 223d
00000330: 56f9 cbbd a86b 8ebd 36fc 413c 7c70 1a3e
00000340: 5cf0 5cbd 55bd 24be 40f8 8bbd 695c 42bd
00000350: 8335 293d 934c d43c f28f 16be fd1c 49bd
00000360: d8c0 74bd 05b4 1f3e 8b3b fabd afae e03d
00000370: 407f 95bd ab9b 003e 19bf 49bd 93e0 ee3b
00000380: 5b54 1b3e 6f61 b43d 30e6 d9bd 2975 e8bd
00000390: 630d d93d 1eb2 d63d 997f 603c 419c 80b9
000003a0: acc8 8c3d 9b11 30bd 2cff 963d fa16 ae3d
000003b0: 134c 043e e234 123e 83df f73d b42d 303e
000003c0: b8cb 31bc 300e 313d 34af 8dbd 0a87 24bc
000003d0: c046 96bc 9ef3 243e 7fc4 2e3d 17b3 df3d
000003e0: ba0c 673d aa5f 99bd d648 29be b60f 00be
000003f0: bf82 c93d decd d03b 6c80 6c3d e338 c7bd

class_author.0.bias f4 [350]
-0.09497487 -0.05060792 -0.03367994 0.03853133 -0.038062505 0.08155791 -0.0013974305 -0.016736908
0.1216422 0.106595084 0.16677745 0.17811292 -0.051945917 0.1822948 0.035206746 0.008620536
0.17823195 0.034484614 0.05514509 0.115292646 0.15659401 -0.061207134 0.16631567 0.06300946
0.06513138 -0.14366737 0.13804848 -0.16703315 -0.15866028 -0.16079089 0.15236947 -0.17152874
-0.119525924 0.07516355 0.015690966 -0.0068170917 0.14344387 -0.082917385 0.0863805 0.07746566
-0.07566917 0.064730175 -0.16589169 0.06951811 -0.1442021 0.14065696 -0.08756766 0.15483473
0.014577216 0.11532447 -0.14736633 -0.022655578 0.1350203 -0.1429734 -0.044264615 0.014969611
0.09757472 0.089807004 0.08633166 -0.09665588 -0.022430018 -0.14496899 -0.04175346 -0.0016235147
-0.011778388 -0.17702714 -0.16537945 -0.10537939 0.123182826 0.087665156 -0.12123599 -0.036405396
-0.07014451 0.079893015 -0.0649068 0.12159014 0.08464727 -0.17205292 0.06170425 -0.07426841
0.13644817 -0.034430988 -0.05111703 -0.0059316875 -0.0005637533 -0.018567631 -0.037270557 -0.09130272
0.121428385 0.14233388 0.016418613 -0.15209474 0.12937392 -0.15318999 0.09875523 -0.11572137
-0.027403923 0.049878664 -0.12080645 -0.059598383 -0.08623791 -0.12765448 -0.162356 -0.10564899
0.12457211 -0.08831084 -0.10134474 0.11921102 0.09482922 0.122551516 0.053402312 -0.02813777
-0.07387091 0.023703318 0.026900973 -0.026592042 0.0034508212 0.12621981 0.09214525 -0.05837452
0.053902276 0.0917446 -0.051848613 -0.0586898 0.15646295 0.16342705 -0.09060949 -0.093214
-0.16222034 -0.17106807 0.0551621 0.017603802 0.101877265 0.024682654 0.05754488 -0.04657381
-0.083553806 0.034576986 0.09603494 -0.13432074 -0.022265293 0.04303708 0.096755505 0.07360699
0.15778755 0.03241594 0.108177274 -0.12156422 -0.010201853 0.16550188 0.0036468427 -0.012828711
0.0832194 -0.04737349 0.047781426 -0.1180662 0.04972997 -0.07912503 -0.076259196 0.10387702
0.14083871 0.07439583 -0.07306035 -0.06316515 0.1621178 0.0048870193 -0.075261824 0.02095874
0.044085264 0.004725391 0.14602038 -0.06632843 -0.032852124 -0.13737772 0.0008406524 0.16071731
-0.13218828 0.07110367 -0.098771155 0.12811022 -0.14503346 0.14963688 -0.113853805 -0.06621791
-0.16299298 -0.026121119 0.029279374 0.141354 -0.14810464 -0.07344624 -0.085000396 -0.0721963
0.04461252 0.14025788 0.0748716 0.022244561 -0.10384344 0.07704558 -0.11352211 -0.13611205
0.051798534 -0.081766605 -0.025346622 -0.09403193 -0.074914426 0.06100874 0.038986396 0.1034605
-0.00370646 0.014137448 -0.1458251 0.012724638 -0.17135167 -0.15495922 0.09380815 0.017746817
-0.090503395 -0.057884365 -0.07596857 -0.03260184 0.053980272 -0.12115507 -0.079037584 0.10340494
-0.0060542375 0.15241672 0.08190266 -0.1578504 -0.106421776 0.14547542 -0.075318284 -0.029226778
0.09308071 0.0677127 0.15194198 0.11008112 -0.03968301 -0.022322617 0.1577711 -0.05050564
0.014566972 -0.17573267 0.10867955 -0.068935096 0.06776464 0.12844941 -0.115778014 -0.033791225
-0.14091395 0.07011633 0.16171621 0.06770948 -0.09417871 0.0029670924 0.023732 0.11143986
00000000: 2f82 c2bd 404a 4fbd faf3 09bd 07d3 1d3d
00000010: 6ee7 1bbd d507 a73d fd29 b7ba d71b 89bc
00000020: 8c1f f93d 864e da3d b5c7 2a3e 3c63 363e
00000030: 3ec5 54bd 7dab 3a3e f334 103d 263d 0d3c
00000040: 7082 363e bd3f 0d3d d1df 613d 8d1e ec3d
00000050: 2e5a 203e 55b4 7abd a84e 2a3e 1b0b 813d
00000060: 9a63 853d 8a1d 13be 955c 0d3e bd0a 2bbe
00000070: d777 22be 5ea6 24be be06 1c3e 3ba5 2fbe
00000080: 02ca f4bd 59ef 993d 578a 803c e961 dfbb
00000090: f3e2 123e 97d0 a9bd 42e8 b03d 51a6 9e3d
000000a0: 70f8 9abd 4191 843d 83df 29be 835f 8e3d
000000b0: b7a9 13be 6108 103e ac56 b3bd ff8c 1e3e
000000c0: 46d5 6e3c 3c2f ec3d 33e7 16be 3198 b9bc
000000d0: c342 0a3e 9e67 12be d04e 35bd 1943 753c
000000e0: 41d5 c73d bcec b73d a7ce b03d 85f3 c5bd
000000f0: 28bf b7bc c072 14be ad05 2bbd 1dcc d4ba
00000100: 24fa 40bc 9a46 35be 3b59 29be 26d1 d7bd
00000110: 4747 fc3d ca89 b33d 934a f8bd d31d 15bd
00000120: eda7 8fbd f39e a33d dbed 84bd 4004 f93d
00000130: 8c5b ad3d a42e 30be 98bd 7c3d 091a 98bd
00000140: 12b9 0b3e 8207 0dbd 1760 51bd 9a5e c2bb
00000150: d8c8 13ba 251b 98bc 03a9 18bd ecfc babd
00000160: 72af f83d f9bf 113e 5480 863c b9be 1bbe
00000170: 997a 043e d6dd 1cbe 2f40 ca3d 53ff ecbd
00000180: 317e e0bc 924d 4c3d 5f69 f7bd 6f1d 74bd
00000190: 809d b0bd dbb7 02be a740 26be 7f5e d8bd
000001a0: aa1f ff3d 50dc b4bd d58d cfbd e824 f43d
000001b0: d235 c23d 4afc fa3d 62bc 5a3d 2e81 e6bc
000001c0: a249 97bd 762d c23c 6e5f dc3c 8ed7 d9bc
000001d0: 2c27 623b c43f 013e a6b6 bc3d 1f1a 6fbd
000001e0: a2c8 5c3d 98e4 bb3d 365f 54bd b764 70bd
000001f0: d337 203e 6c59 273e 7891 b9bd fbe6 bebd
00000200: 171d 26be 782c 2fbe a7f1 613d d935 903c
00000210: 07a5 d03d 4733 ca3c 2eb4 6b3d 2ec4 3ebd
00000220: 421e abbd 99a0 0d3d f7ad c43d 608b 09be
00000230: b465 b6bc a647 303d c027 c63d 43bf 963d
00000240: 0f93 213e 94c6 043d 0c8c dd3d a9f6 f8bd
00000250: ac25 27bc 5379 293e deff 6e3b 842f 52bc
00000260: ef6e aa3d b40a 42bd 75b6 433d b1cc f1bd
00000270: a7b1 4b3d 4e0c a2bd c82d 9cbd 7abd d43d
00000280: 0638 103e d75c 983d aaa0 95bd bb5c 81bd
00000290: 3502 263e 4a23 a03b df22 9abd aab1 ab3c
000002a0: c092 343d 74d7 9a3b 5e86 153e 33d7 87bd
000002b0: f38f 06bd bfac 0cbe 3a5f 5c3a 1493 243e
000002c0: 5d5c 07be cd9e 913d 8848 cabd 532f 033e
000002d0: a783 14be 693a 193e 2f2c e9bd 419d 87bd
000002e0: a2e7 26be f5fb d5bc 4cdb ef3c 1abf 103e
000002f0: bea8 17be fb6a 96bd b014 aebd a7db 93bd
00000300: 9ebb 363d c39f 0f3e 4856 993d 3a3a b63c
00000310: dfab d4bd 13ca 9d3d 487e e8bd f560 0bbe
00000320: b32a 543d 4075 a7bd b8a3 cfbc d093 c0bd
00000330: bc6c 99bd 4de4 793d 33b0 1f3d 19e3 d33d
00000340: 14e8 72bb c1a0 673c 2d53 15be 007b 503c
00000350: d076 2fbe a1ad 1ebe 7d1e c03d c661 913c
00000360: d859 b9bd 2818 6dbd 6995 9bbd 8289 05bd
00000370: 6b1a 5d3d 2620 f8bd 75de a1bd f8c5 d33d
00000380: a062 c6bb 2113 1c3e 95bc a73d 89a3 21be
00000390: a9f3 d9bd 82f7 143e 7940 9abd ff6c efbc
000003a0: 19a1 be3d f5ac 8a3d ae96 1b3e 3672 e13d
000003b0: a78a 22bd ecdd b6bc bf8e 213e 01df 4ebd
000003c0: 4faa 6e3c 44f3 33be 6293 de3d d82d 8dbd
000003d0: 30c8 8a3d 3e88 033e 061d edbd ab68 0abd
000003e0: bf4b 10be 2799 8f3d ef98 253e 45ab 8a3d
000003f0: c4e0 c0bd 8d73 423b 9c69 c23c 953a e43d

momentum_buffer f4 [64]
0.011037381 -0.0028265666 -0.1100862 -0.006144901 0.028561719 -0.052070275 -0.09463187 -0.008149758
-0.042094182 0.016911568 -0.0002776729 0.024799408 -0.2329728 -0.015389078 -0.09795428 -0.010873413
-0.14361534 0.01095511 -0.0014429556 -0.16666298 -0.15244332 -0.1630722 0.0014638441 0.0042675957
-0.019614013 -0.06652135 -0.1291498 0.0054406007 -0.0045137596 0.0046241977 -0.0006348954 0.02960296
0.0021347306 -0.0027630297 0.0022728057 -0.17333737 -0.14261293 -0.00989739 0.05455954 -0.24330565
-0.0018963589 -0.13605066 0.015982592 0.02843906 -0.07967489 -0.0019425098 -0.09071477 0.03296764
-0.0074753235 -0.006377951 0.026795795 0.0035770116 -0.1931819 0.02483626 -0.121146426 -0.17598888
-0.17697166 0.00030050904 0.00980356 0.009742776 -0.19449121 -0.010373381 0.0041600936 0.0029702496
00000000: 22d6 343c eb3d 39bb e074 e1bd 2a5b c9bb
00000010: 44fa e93c a447 55bd 5bce c1bd 9086 05bc
00000020: f36a 2cbd 218a 8a3c a094 91b9 2128 cb3c
00000030: 6c90 6ebe 7922 7cbc 419c c8bd 6626 32bc
00000040: e60f 13be 107d 333c 8e21 bdba b3a9 2abe
00000050: 1a1a 1cbe 66fc 26be 75de bf3a 30d7 8b3b
00000060: 91ad a0bc 583c 88bd d83f 04be 1147 b23b
00000070: 29e8 93bb 9586 973b 1c6f 26ba e881 f23c
00000080: d6e6 0b3b f213 35bb 5af3 143b 5a7f 31be
00000090: 2009 12be aa28 22bc d379 5f3d 1e25 79be
000000a0: 3f8f f8ba dd50 0bbe eded 823c 08f9 e83c
000000b0: 972c a3bd d09b feba aac8 b9bd 1309 073d
000000c0: 8ff3 f4bb 21fe d0bb db82 db3c 4c6c 6a3b
000000d0: 7ad1 45be 6a75 cb3c 9e1b f8bd 6e36 34be
000000e0: 0f38 35be a48d 9d39 1c9f 203c 2aa0 1f3c
000000f0: b428 47be 1df5 29bc 6551 883b 85a8 423b
